housepriceprediction/model/model.pkl (torch, 44347 bytes, 3 tensors)

fc1.weight f4 [32, 331]
-7.769274 10.848939 10.778729 20.068274 5.198972 13.43285 16.307457 14.634011
13.757011 0.76250404 7.914937 15.470314 16.465979 14.099518 1.2308781 17.079092
12.769375 -0.7559971 15.839401 11.58791 3.4357283 -11.779306 16.827831 16.82404
12.381644 17.263239 16.280485 13.07246 10.083487 -1.6316175 3.4739895 7.108748
2.8936384 -0.8981662 3.7545023 -0.5573167 -1.1585575 12.554794 9.005472 14.097511
9.300804 -0.06915844 0.21033098 13.681192 -0.026800767 8.680846 11.139424 13.496366
15.5863905 14.3150215 4.077514 10.8874035 -0.0013845814 8.174089 15.814095 12.2054615
12.58764 -0.022098863 13.479013 -0.014770829 -0.12549978 12.169383 16.824444 7.209999
4.928573 12.72638 0.032327335 12.506249 15.471529 7.836782 0.035385627 5.3880024
1.1502142 2.035481 16.191868 12.018904 6.2503934 18.13858 5.4968295 3.7970965
7.2772183 2.7579021 3.6794324 5.8821926 3.8363984 4.3590183 16.529081 19.102196
10.916724 8.591155 4.674557 6.8031116 13.22864 16.016718 11.375918 11.44086
0.17503138 8.445285 5.747728 15.814812 6.6505756 7.2210283 0.7314338 7.461429
1.0920414 6.769371 0.05783416 3.879086 3.51416 13.73979 4.858437 1.4204555
1.0639229 0.030767767 4.658231 0.05470864 14.423561 10.990282 5.061372 4.308858
11.583187 0.16526742 13.167561 12.512619 12.788039 7.0390096 9.467848 13.65262
8.813132 8.354557 -0.084076606 9.696821 8.870889 10.127133 17.697554 7.1674724
5.6990776 -0.09743083 -2.593587 12.963935 4.919449 4.784223 0.4717398 7.022078
7.5465856 9.190415 -0.01795285 9.71215 4.7044454 0.6217149 17.325678 3.9722831
15.311293 7.746794 4.767158 13.345765 7.0833297 6.8055744 8.529054 12.545291
12.235616 8.879606 0.14620484 10.658829 5.9262543 3.4697366 13.581336 4.172139
15.458454 8.822466 8.845771 13.321863 4.8012495 6.1376934 7.91955 7.9209967
12.512456 13.318879 11.594583 0.034693435 1.4415203 11.03057 12.738461 16.61271
7.0955453 17.52667 6.435308 15.218568 5.7633853 0.004267881 6.9803977 8.704327
12.999434 -0.37090272 13.0491905 -0.11546942 14.383924 6.951778 15.969786 10.866115
7.7963367 2.4531195 0.0086963475 19.88406 9.759265 8.212296 7.5763655 11.683395
5.9433413 14.520511 1.7939744 13.072257 11.606026 14.919051 18.384365 14.064454
6.8252563 11.263552 7.936504 9.097631 18.387566 11.197836 8.458509 8.148845
11.633301 12.017416 4.869769 11.480872 9.030655 8.889007 13.314457 11.799558
3.6366115 13.212556 10.344324 5.760305 0.89625067 8.337262 0.008241457 16.668955
10.786751 9.306066 3.522051 6.6676083 0.11830905 11.252785 13.179578 -0.06966805
12.598986 11.598298 5.7852006 -0.39758778 12.869017 1.6068379 19.563154 10.757761
00000000: e59d f8c0 4195 2d41 ad75 2c41 d38b a041
00000010: fb5d a640 f4ec 5641 ac75 8241 e924 6a41
00000020: b81c 5c41 7733 433f 2a47 fd40 6886 7741
00000030: 53ba 8341 a097 6141 6a8d 9d3f fba1 8841
00000040: 5c4f 4c41 0789 41bf 306e 7d41 1468 3941
00000050: f9e2 5b40 0a78 3cc1 669f 8641 a297 8641
00000060: 371b 4641 1d1b 8a41 6f3e 8241 cc28 5141
00000070: f655 2141 d8d8 d0bf d855 5e40 dd7a e340
00000080: 5f31 3940 38ee 65bf c449 7040 4fac 0ebf
00000090: 9d4b 94bf 70e0 4841 6a16 1041 688f 6141
000000a0: 18d0 1441 f1a2 8dbd 0161 573e 2ae6 5a41
000000b0: 488d dbbc bfe4 0a41 153b 3241 1df1 5741
000000c0: db61 7941 540a 6541 ff7a 8240 ce32 2e41
000000d0: d87a b5ba 12c9 0241 8806 7d41 9249 4341
000000e0: f966 4941 ad08 b5bc 0aaa 5741 5901 72bc
000000f0: 0483 00be cbb5 4241 7698 8641 50b8 e640
00000100: dfb6 9d40 419f 4b41 ab69 043d 9919 4841
00000110: 628b 7741 ebc6 fa40 85f0 103d 846a ac40
00000120: 383a 933f 5245 0240 f288 8141 6e4d 4041
00000130: 3903 c840 d01b 9141 07e6 af40 a103 7340
00000140: f9de e840 7881 3040 d27b 6b40 ec3a bc40
00000150: 8d87 7540 147d 8b40 8f3b 8441 4cd1 9841
00000160: e7aa 2e41 5f75 0941 f995 9540 17b3 d940
00000170: 82a8 5341 3d22 8041 c303 3641 c30d 3741
00000180: 6d3b 333e e31f 0741 63ed b740 7809 7d41
00000190: 84d1 d440 aa12 e740 3f3f 3b3f 07c4 ee40
000001a0: 03c8 8b3f b09e d840 83e3 6c3d f242 7840
000001b0: ffe7 6040 2ed6 5b41 5178 9b40 7cd1 b53f
000001c0: a02e 883f af0c fc3c 3a10 9540 2b16 603d
000001d0: e8c6 6641 32d8 2f41 c2f6 a140 2ae2 8940
000001e0: bc54 3941 dd3b 293e 54ae 5241 b033 4841
000001f0: cf9b 4c41 913f e140 4e7c 1741 2271 5a41
00000200: 9702 0d41 44ac 0541 5b30 acbd 2e26 1b41
00000210: 29ef 0d41 bd08 2241 9794 8d41 ef5b e540
00000220: d85e b640 d189 c7bd 54fd 25c0 476c 4f41
00000230: 206c 9d40 5b18 9940 e187 f13e ddb4 e040
00000240: a17d f140 f10b 1341 db11 93bc f764 1b41
00000250: d18a 9640 b528 1f3f fd9a 8a41 e339 7e40
00000260: 0efb 7441 bde5 f740 8f8c 9840 4188 5541
00000270: a3aa e240 44c7 d940 0177 0841 83b9 4841
00000280: 15c5 4341 de12 0e41 b9b6 153e 908a 2a41
00000290: e0a3 bd40 2a10 5e40 274d 5941 2a82 8540
000002a0: d455 7741 d228 0d41 4788 0d41 5a26 5541
000002b0: d6a3 9940 fc67 c440 f46c fd40 ce78 fd40
000002c0: 0533 4841 211a 5541 6983 3941 b41a 0e3d
000002d0: bd83 b83f 377d 3041 bcd0 4b41 d5e6 8441
000002e0: b50e e340 9f36 8c41 0bee cd40 417f 7341
000002f0: a76d b840 95d9 8b3b 6b5f df40 ec44 0b41
00000300: affd 4f41 f6e6 bdbe 7cc9 5041 3b7b ecbd
00000310: 8d24 6641 f774 de40 3e84 7f41 9bdb 2d41
00000320: 977b f940 e9ff 1c40 207b 0e3c 8e12 9f41
00000330: f325 1c41 9065 0341 9671 f240 30ef 3a41
00000340: da2f be40 0354 6841 f4a0 e53f f727 5141
00000350: 48b2 3941 6fb4 6e41 2e13 9341 0108 6141
00000360: 8068 da40 8237 3441 d7f7 fd40 e68f 1141
00000370: bc19 9341 562a 3341 0e56 0741 ab61 0241
00000380: 0022 3a41 5647 4041 26d5 9b40 a7b1 3741
00000390: 907d 1041 5f39 0e41 0408 5541 fdca 3c41
000003a0: 3ebe 6840 a166 5341 5a82 2541 6b54 b840
000003b0: af70 653f 6d65 0541 2d07 073c 055a 8541
000003c0: 8896 2c41 a5e5 1441 4969 6140 0c5d d540
000003d0: 044c f23d 680b 3441 8ddf 5241 1fae 8ebd
000003e0: 7295 4941 a192 3941 5d20 b940 a090 cbbe
000003f0: 7ee7 4d41 ddac cd3f 5781 9c41 ca1f 2c41

fc1.bias f4 [32]
13.458752 13.277649 13.287813 13.518566 13.404769 13.525667 13.525442 13.312655
-0.03904736 -0.034332335 13.540694 -0.043342557 -0.02375599 13.317705 13.306869 -0.030288512
13.481246 -0.029965825 13.295359 13.386059 13.324656 -0.026786486 -0.024314731 -0.042399473
13.19738 13.312721 13.343683 13.062673 13.421386 13.253922 -0.04574889 -0.026252976
00000000: 0c57 5741 4071 5441 e29a 5441 0c4c 5841
00000010: ef79 5641 2269 5841 3668 5841 a300 5541
00000020: 20f0 1fbd 10a0 0cbd afa6 5841 f787 31bd
00000030: ec9b c2bc 5215 5541 efe8 5441 9d1f f8bc
00000040: 2fb3 5741 e47a f5bc cab9 5441 4c2d 5641
00000050: ca31 5541 556f dbbc b02f c7bc 12ab 2dbd
00000060: 7828 5341 e800 5541 ba7f 5541 b500 5141
00000070: ffbd 5641 1110 5441 3063 3bbd 7b10 d7bc

fc2.weight f4 [1, 32]
15.877811 16.089352 16.085419 15.82458 15.937758 15.801108 15.827887 16.081123
-0.0534897 -0.017847314 15.792981 -0.17361645 -0.44590884 16.047394 16.064117 -0.043485772
15.867746 -0.82550234 16.0405 15.96685 16.066957 -0.20677243 -0.5603434 -0.15298398
16.26957 16.065504 16.027851 16.49048 15.910446 16.150814 -0.07995151 -0.09360284
00000000: 840b 7e41 feb6 8041 f0ae 8041 7b31 7d41
00000010: 0f01 7f41 57d1 7c41 063f 7d41 24a6 8041
00000020: 0418 5bbd 8834 92bc 0db0 7c41 83c8 31be
00000030: 2a4e e4be 1061 8041 5083 8041 231e 32bd
00000040: 4ae2 7d41 1f54 53bf f252 8041 3878 7f41
00000050: 2189 8041 27bc 53be aa72 0fbf d5a7 1cbe
00000060: 1428 8241 2786 8041 0a39 8041 81ec 8341
00000070: 3091 7e41 de34 8141 9ebd a3bd d9b2 bfbd
