logisticregression/model/model.pkl (torch, 640897 bytes, 6 tensors)

fc1.weight f4 [196, 784]
0	0xbd6a76f5	-0.057242353
1	0xbca109c4	-0.019657977
2	0xbdabfb76	-0.08397572
3	0xbca8be50	-0.02059856
4	0xbd1b6103	-0.037934314
5	0xbcf80e3f	-0.03028023
6	0xbd8db55a	-0.06919356
7	0xbd053064	-0.032516852
8	0xbd80174c	-0.062544435
9	0xbd7ebe5b	-0.062193256
10	0x3cd291c4	0.025704272
11	0xbd696189	-0.056977782
12	0xbd927813	-0.071518086
13	0xbdc49565	-0.09598807
14	0xbd6497e4	-0.055808917
15	0xbd9c570a	-0.07633789
16	0x3dad688f	0.084672086
17	0xbd5afede	-0.053465717
18	0x3ba29ab0	0.004962288
19	0x3cad9d6a	0.021193225
20	0x3c465613	0.012105483
21	0xbd8e5a88	-0.06950861
22	0xbc11b13b	-0.008892353
23	0xbc5a857f	-0.013337492
24	0xbdefe474	-0.11713496
25	0x3d2329a4	0.039834633
26	0xbda999a9	-0.082812615
27	0xbda4ce42	-0.08047153
28	0x3d31c9fa	0.04340551
29	0xbd8c7818	-0.068588436
30	0xbc04fe19	-0.008117222
31	0xbc9810ec	-0.018562756
32	0xbd4d7398	-0.050159067
33	0xbdad8b15	-0.084737934
34	0xbd2cf013	-0.04222114
35	0x3c93b644	0.018031247
36	0x3d090eec	0.033461496
37	0xbdf663ab	-0.12030729
38	0x3c9637bb	0.018337121
39	0xbc9cd3a5	-0.019143889
40	0xbd7d883e	-0.06189751
41	0x3d1c2f12	0.038130827
42	0xbd4c534c	-0.049884126
43	0xbdd46796	-0.1037132
44	0xbd8ca43f	-0.06867265
45	0xbd3408b0	-0.043953598
46	0xbbdc2bb9	-0.0067190793
47	0x3d2a46c2	0.041571386
48	0xbce371ee	-0.027764287
49	0x3d05e9f8	0.032693833
50	0xbd33e90f	-0.043923434
51	0x3b9e49ac	0.0048305597
52	0x3d0e3524	0.034718648
53	0x3ca20297	0.019776626
54	0xbd605c6f	-0.05477565
55	0x3b6a6bd3	0.0035769835
56	0xbe16cfd0	-0.14727712
57	0xbddb4e37	-0.10708278
58	0x3ccad591	0.02476004
59	0x3ba4897d	0.0050212727
60	0xbdf993a1	-0.12186361
61	0xbd23b093	-0.039963316
62	0x3b2168ce	0.002462912
63	0xbdbfaa6c	-0.09358677
64	0xbd9077af	-0.07054078
65	0x3c6648c0	0.014055431
66	0xbe020b45	-0.12699611
67	0xbdfd5868	-0.12370378
68	0xbd379125	-0.044816155
69	0xbdaf5c8f	-0.08562576
70	0xbd72371f	-0.0591346
71	0x3b83fbf7	0.0040278393
72	0xbd7f84a3	-0.06238235
73	0xbd1b1c81	-0.03786898
74	0xbd05491d	-0.03254043
75	0xbd70f2fb	-0.058825474
76	0xbdd28176	-0.10278599
77	0x3d1bfa7b	0.038080674
78	0xbd1553fa	-0.03645704
79	0x3ba0576c	0.004893234
80	0x3da42f61	0.08016849
81	0xbd8eaec8	-0.06966931
82	0xbe16892b	-0.14700763
83	0xbdbe4e63	-0.09292295
84	0xbd091ec1	-0.033476595
85	0xbce14d3d	-0.02750265
86	0x3dac3198	0.08407897
87	0xbcb6c7f4	-0.022312142
88	0x3cb98c5e	0.02264994
89	0xbd90ccd1	-0.07070316
90	0xbd14eb6e	-0.036357336
91	0xbdf6dd84	-0.120539695
92	0x3d6d93a9	0.058002148
93	0xbd249613	-0.040182184
94	0x3d042d3f	0.032269713
95	0x3d57953d	0.05263256
96	0x3df3f6e7	0.11912327
97	0x3d8ecbca	0.069724634
98	0x3e288979	0.16458692
99	0xbd9338aa	-0.07188542
100	0x3e2b803d	0.16748138
101	0x3d67f256	0.056627594
102	0xbd27a9fa	-0.040933587
103	0xbd5fb4c0	-0.054615736
104	0xbe2e0351	-0.16993453
105	0xbda5e217	-0.08099764
106	0xbcb9d75b	-0.022685697
107	0x3cadf8d9	0.021236824
108	0x3d5490e3	0.051895987
109	0xbe0407c8	-0.12893593
110	0x3cb426b2	0.021991108
111	0xbde6e9cc	-0.11275062
112	0x3ca81e79	0.020522343
113	0x3c78a61a	0.01517632
114	0xbcba6b6c	-0.0227563
115	0xbded3e42	-0.1158414
116	0xbce87672	-0.028376792
117	0xbdc9c70b	-0.098524176
118	0xbdb023ac	-0.08600554
119	0x3c2e6e5c	0.010646429
120	0x3d767827	0.06017318
121	0x3e277636	0.16353688
122	0x3cbb21b7	0.022843225
123	0x3d61ec3c	0.05515693
124	0x3d60a063	0.054840457
125	0x3da3cb5b	0.07997771
126	0x3d43bff0	0.047790468
127	0x3e0135ce	0.12618181
128	0x3de078d7	0.10960548
129	0x3dd43105	0.10360912
130	0x3de358ef	0.11100947
131	0x3d0d4a1d	0.034494508
132	0xbc89c369	-0.016816812
133	0xbcce2dac	-0.025168262
134	0x3c17a41b	0.009255434
135	0x3cb1a340	0.021684289
136	0x3d874e7b	0.06606766
137	0x3c7a1a05	0.015264993
138	0xbca6c776	-0.020358782
139	0xbd6cb840	-0.057792902
140	0xbda5f504	-0.08103374
141	0x3d75e0ef	0.060028967
142	0xbdbc946c	-0.09207997
143	0xbda7e355	-0.08197657
144	0x3d6ce7dc	0.057838306
145	0x3d86e7a2	0.06587149
146	0x3e093285	0.13398178
147	0xbca475ae	-0.020075645
148	0x3d2bdc4a	0.04195813
149	0x3e4b737c	0.19868273
150	0x3dc4cced	0.09609399
151	0x3c86fde9	0.016478496
152	0xbdd2aa41	-0.102863796
153	0xbe116bc3	-0.14201264
154	0xbdbbf262	-0.0917709
155	0xbe01684b	-0.12637441
156	0xbe4c0ac0	-0.19925976
157	0xbd623e09	-0.055234943
158	0xbd1f005b	-0.0388187
159	0xbd116945	-0.035500783
160	0x3d3ea419	0.046543214
161	0xbd889c65	-0.06670455
162	0xbc8347bf	-0.016025422
163	0x3daeb359	0.085303016
164	0x3ca15b28	0.019696787
165	0x3c440d8c	0.01196612
166	0xbddf684c	-0.10908565
167	0xbcb4f679	-0.022090184
168	0xbdae51c0	-0.08511686
169	0xbce2191f	-0.02759987
170	0x3c8592b6	0.016305309
171	0x3ce36585	0.02775837
172	0x3d019581	0.03163672
173	0x3de840a1	0.11340452
174	0x3d772966	0.060342215
175	0x3dced7dc	0.10099766
176	0x3da45a68	0.08025056
177	0xbd8b98ab	-0.068162285
178	0xbd4913c9	-0.049091134
179	0xbd0c5078	-0.03425643
180	0xbddae962	-0.106890455
181	0xbd92bed2	-0.07165302
182	0xbd068190	-0.032838404
183	0xbe01b51c	-0.12666744
184	0x3cd188be	0.025577899
185	0x3dcb48a9	0.09925968
186	0xbde043c8	-0.10950428
187	0xbddc8c85	-0.107689895
188	0xbd860729	-0.065443344
189	0xbe06eb04	-0.13175589
190	0x3bb8eebf	0.005643695
191	0x3ddca1fe	0.10773085
192	0xbd1b302a	-0.03788773
193	0x3c77fb88	0.015135653
194	0xbd3707b8	-0.044685096
195	0x3d17ee60	0.037092566
196	0xbd49d501	-0.049275402
197	0xbd96fafb	-0.073720895
198	0xbd605b9c	-0.054774866
199	0xbda2cb72	-0.0794896
200	0x3d1d661c	0.038427457
201	0x3d3a78e0	0.04552543
202	0x3d869011	0.06570447
203	0x3d97fc55	0.074211754
204	0x3d5c6a7b	0.053812485
205	0x3d6e7aa5	0.05822243
206	0xba0cd6e7	-0.0005372599
207	0x3c304edd	0.01076099
208	0x3d54066e	0.051763944
209	0xbc1dfc5b	-0.009642686
210	0x3d01268b	0.031530898
211	0x3d3ef193	0.046617102
212	0x3dfc7570	0.12327087
213	0x3cc62698	0.024188325
214	0xbc8e095f	-0.017338453
215	0xbcc9284e	-0.024555352
216	0xbe06f0cb	-0.13177793
217	0xbddcedd0	-0.10787547
218	0x3d84a9dd	0.06477711
219	0x3dfb862e	0.12281452
220	0x3d8f43f0	0.0699538
221	0x3d9bf100	0.076143265
222	0x39af58a3	0.0003344464
223	0x3c6c1cee	0.014411194
224	0xbdcd08df	-0.10011458
225	0xbd9de53f	-0.07709741
226	0x3adedc73	0.0017002955
227	0xbd978c87	-0.0739985
228	0x3cbc1ca5	0.022962878
229	0x3cc4f31f	0.02404171
230	0x3d07351d	0.033009637
231	0x3d7d6360	0.06186235
232	0x3df00483	0.117196105
233	0x3def4edc	0.11684963
234	0xbd863bd5	-0.06554381
235	0x3dea8726	0.11451559
236	0x3d3cea40	0.046121836
237	0xbb8e16ab	-0.0043361983
238	0xbd0b7697	-0.034048643
239	0xbce97acc	-0.028500937
240	0x3b70d368	0.0036747102
241	0x3daed7f0	0.085372806
242	0xbc9f7609	-0.019465463
243	0xbd96d0d3	-0.07364049
244	0xbd7c29f0	-0.061563432
245	0xbd56c26a	-0.0524315
246	0x3c576728	0.013147153
247	0xbcfcaa90	-0.03084305
248	0xbd17dc07	-0.03707507
249	0x3c0ed6c3	0.008718195
250	0xbcca2510	-0.024675876
251	0x3c86db15	0.016461888
252	0xbd6f6791	-0.058448378
253	0xbd5b1dcb	-0.05349521
254	0xbda02371	-0.0781926
255	0x3d063253	0.032762837

fc1.bias f4 [196]
0	0x3d1958c6	0.037438177
1	0xbcec8a88	-0.02887465
2	0xbd1bfc14	-0.038082197
3	0xbb8e3e6c	-0.0043409374
4	0xbd010792	-0.03150136
5	0xbbc9f739	-0.0061635044
6	0x3ac65cea	0.0015133892
7	0xbccdae08	-0.025107399
8	0xbcc8714e	-0.02446809
9	0xbc581f65	-0.013191079
10	0xbcda6a78	-0.026662096
11	0xbcc867a8	-0.02446349
12	0xbc254006	-0.010086065
13	0xbb69ecf5	-0.0035694216
14	0xbbd6c9ca	-0.006554817
15	0x3d256dc6	0.04038789
16	0x3d2804d9	0.041020248
17	0xbc9ab6f8	-0.018886074
18	0xbcf9c36c	-0.030488692
19	0x3ab8275b	0.0014049815
20	0xbd09739a	-0.033557512
21	0xbcf5978a	-0.029979486
22	0xbd3319ff	-0.043725964
23	0x3cc9d503	0.024637705
24	0xbcd458f0	-0.025921315
25	0xbcbd756f	-0.023127286
26	0xbbb7814c	-0.00560013
27	0xbcc3c3da	-0.0238971
28	0x3cdeb17f	0.027184246
29	0xbcd5ce8e	-0.02609947
30	0xbc8b8d05	-0.017035017
31	0xbba8cf38	-0.0051516555
32	0xbd72757e	-0.05919408
33	0xbc5aa481	-0.013344885
34	0xbcb122af	-0.021622984
35	0xbceecf81	-0.02915168
36	0xba0e726a	-0.0005433919
37	0xbc124b8f	-0.008929147
38	0xbd60b696	-0.054861628
39	0xbc09aae9	-0.008402565
40	0xbcd30684	-0.025759943
41	0xbd2d9699	-0.04237995
42	0xbc51fa0e	-0.012815965
43	0xbc785bcc	-0.015158605
44	0x3b8676d3	0.0041035204
45	0xbc5ae216	-0.013359567
46	0x3b7f5c85	0.0038965058
47	0xbc8dcc3c	-0.0173093
48	0xbbb05905	-0.0053817057
49	0xbc88db4b	-0.01670613
50	0xbaee7339	-0.0018192298
51	0xbd0ace48	-0.03388813
52	0xbd0c4493	-0.034245085
53	0xbcce03fb	-0.025148382
54	0xbc7501e2	-0.014954062
55	0xbb993033	-0.0046749352
56	0xbcb66765	-0.0222661
57	0x39a25166	0.00030959694
58	0x3beb5056	0.0071812076
59	0xbcb0e5c3	-0.021593934
60	0xbc0f741e	-0.008755712
61	0xbcf42ecd	-0.029807473
62	0x3b3b1173	0.0028544336
63	0xbcf112cc	-0.029427908
64	0xbbbf8367	-0.005844522
65	0x3bdbfea5	0.0067137056
66	0xbd9048da	-0.07045145
67	0xbbc53909	-0.006018762
68	0xbcd9336b	-0.026513776
69	0xbcb08011	-0.021545442
70	0xbc9e0771	-0.019290658
71	0xbd061248	-0.032732278
72	0xbc2d821b	-0.010590102
73	0xbc8e504b	-0.017372271
74	0xbd20ed21	-0.039288644
75	0xbcf62c77	-0.0300505
76	0xbc052401	-0.00812626
77	0xbac42add	-0.0014966388
78	0xbd2afec0	-0.041746855
79	0xbcd97316	-0.026544135
80	0xbd0b10c7	-0.033951547
81	0x3ba24f36	0.0049532903
82	0xbcd61a3e	-0.02613556
83	0x3b9e1e34	0.004825378
84	0x3c1fe1e2	0.0097584445
85	0xbca0d4bc	-0.01963269
86	0x3ce62ba5	0.028096983
87	0xbcc954b4	-0.024576522
88	0xbcc1f326	-0.023675513
89	0xbc0d9d4e	-0.008643461
90	0xbd1081e7	-0.035280135
91	0xbd0debcc	-0.0346487
92	0xbb29f314	-0.002593224
93	0xbcc775e4	-0.024348207
94	0xbc9d7c23	-0.019224232
95	0xbcd778a5	-0.026302645
96	0xbc305192	-0.010761635
97	0x3afd10cd	0.0019307375
98	0xbd491d15	-0.0491
99	0xbc823a30	-0.015896887
100	0xbc229080	-0.009922147
101	0xbc236ae3	-0.009974214
102	0x3b97fee4	0.0046385396
103	0x3c9dfc0b	0.019285223
104	0xbd409c05	-0.04702379
105	0xbcb114b7	-0.021616323
106	0xbc65a6f5	-0.014016856
107	0xb8b29202	-8.5148975e-05
108	0xbc92bb60	-0.017911613
109	0xbc9b0a09	-0.018925684
110	0xbc0256fb	-0.007955308
111	0xbc9a856f	-0.018862454
112	0xba24a8fa	-0.0006281283
113	0xbbf42bbd	-0.007451503
114	0xbcbda7f4	-0.023151375
115	0xbcca60c6	-0.024704348
116	0x3b6ed037	0.0036440024
117	0xbcbf60aa	-0.023361523
118	0xbc69075a	-0.014222944
119	0xbcccd00e	-0.025001552
120	0xbc6eb6db	-0.014569963
121	0xbc1c2be3	-0.009531948
122	0xbc8ab24d	-0.016930724
123	0xbc9dabd7	-0.019246979
124	0xbcd354a6	-0.0257972
125	0xbd055fe5	-0.032562155
126	0xbc0e7230	-0.008694217
127	0x3b66bb80	0.0035206974
128	0xbc625c8f	-0.013816013
129	0xbd008705	-0.031378765
130	0xbd3012a8	-0.042986542
131	0xbc97a7af	-0.018512575
132	0xbcda0914	-0.026615657
133	0xbd5a3395	-0.05327185
134	0x3d0451f2	0.03230471
135	0x36613495	3.355822e-06
136	0xbc6727fe	-0.014108656
137	0xbbe17fd7	-0.006881695
138	0xbcf74075	-0.030182103
139	0xbbfc4421	-0.0076985513
140	0x3ba599ec	0.0050537493
141	0xbd3a45e0	-0.045476794
142	0xbcb24a4b	-0.021763941
143	0xbb6633c2	-0.0035126065
144	0xbc2feee6	-0.01073811
145	0xbcca1ea0	-0.024672806
146	0xbcd2e18e	-0.025742318
147	0xbd215c25	-0.039394516
148	0xbc497b61	-0.012297482
149	0xbcd88f2a	-0.026435453
150	0x3ce5ee44	0.028067715
151	0xbc68f38b	-0.014218221
152	0x3b2f9f62	0.002679788
153	0xbd2e02a6	-0.042482994
154	0x3cae84ae	0.021303501
155	0x3c861f09	0.01637222
156	0xbc2d9a73	-0.010595906
157	0xbb81a0d6	-0.0039559407
158	0xbccf7c5d	-0.025327856
159	0xbd200898	-0.039070696
160	0xbce1e5a7	-0.027575327
161	0xbd24b3fb	-0.040210705
162	0xbc6cf7de	-0.014463393
163	0xbd06a4f9	-0.032872174
164	0xbbc6cc9c	-0.006066872
165	0xbc1e1787	-0.009649164
166	0xbce5e3cc	-0.028062724
167	0xbcabd3ba	-0.020974983
168	0x3c37a53c	0.011208829
169	0xbc95ffe2	-0.018310491
170	0xbd34112c	-0.04396169
171	0xbc9a1ca7	-0.01881249
172	0xbd4889e0	-0.048959613
173	0xbb0439e3	-0.0020176105
174	0xbd29b911	-0.04143626
175	0x3ca101ff	0.019654272
176	0x3c801610	0.01563552
177	0xbcfe5e60	-0.03105086
178	0xbcb7f505	-0.022455702
179	0x3aa24394	0.0012379759
180	0xbc8ed6a0	-0.017436326
181	0xbbb3d440	-0.0054879487
182	0xbcf2e63e	-0.029650804
183	0xbc8ad834	-0.016948797
184	0x3c519eb1	0.012794183
185	0xbcb67e3c	-0.02227699
186	0xbce095b1	-0.027415128
187	0xbd1aac5e	-0.03776204
188	0xbcda94de	-0.026682314
189	0xbcefe3b8	-0.02928339
190	0xbd301fb9	-0.042999003
191	0xbd105e26	-0.035246037
192	0xbd14e6ea	-0.03635303
193	0xbbd6265d	-0.006535335
194	0xbc0e4567	-0.008683539
195	0xbb616fef	-0.0034398993

fc2.weight f4 [28, 196]
0	0x3d1444e1	0.0361985
1	0x3e36e4e3	0.17860751
2	0x3e704208	0.23462689
3	0x3de08638	0.109631
4	0xbdc08d58	-0.09401959
5	0xbe421b41	-0.18955709
6	0xbe0a1d54	-0.1348775
7	0x3d85c5a6	0.06531839
8	0x3e0f51b0	0.13996005
9	0x3d21852b	0.03943364
10	0x3d763ba7	0.060115483
11	0xbd00f73c	-0.03148578
12	0x3ea7f43e	0.3280353
13	0xbd8d3f7a	-0.06896873
14	0xbd809612	-0.06278624
15	0x3dcd8fb9	0.100371785
16	0x3e7b392b	0.24533527
17	0x3d958226	0.073002145
18	0x3e6830b8	0.22674835
19	0x3e397b1c	0.18113369
20	0x3d2cc989	0.042184386
21	0xbdc6fb14	-0.09715858
22	0x3d6bde18	0.057584852
23	0xbe4bb258	-0.19892251
24	0xb99576a3	-0.00028507886
25	0x3eb40770	0.35161924
26	0x3d42caa0	0.04755652
27	0x3c4f0ddf	0.0126375845
28	0x3e027b9a	0.12742463
29	0x3ce969ae	0.028492775
30	0xbd9e9415	-0.07743088
31	0x3d463ecf	0.048399743
32	0xbe268858	-0.16262949
33	0xbe732086	-0.23742875
34	0x3c466440	0.012108862
35	0x3dc72f3a	0.097258046
36	0xbe2f56b8	-0.17122924
37	0x3ddf055e	0.108896956
38	0xbc0b4383	-0.008499983
39	0xbdc79fb1	-0.097472556
40	0x3e661e0e	0.22472402
41	0xba06a8cd	-0.00051368476
42	0xbdbf7f96	-0.09350507
43	0xbd393b64	-0.045222655
44	0xbe5084fe	-0.20363232
45	0x3e31464c	0.17311972
46	0x3db36569	0.08759577
47	0x3e3f046e	0.18654034
48	0xbe008b81	-0.12553217
49	0xbca33158	-0.01992099
50	0xbda0339a	-0.07822342
51	0xbea2d303	-0.31801614
52	0xbd50a22c	-0.05093591
53	0xbe1a877b	-0.15090744
54	0xbe03d98c	-0.12875956
55	0x3e5bf61a	0.21480599
56	0xbe0fbf7b	-0.14037888
57	0x3de93263	0.11386564
58	0x3e235619	0.15950812
59	0xbda8824d	-0.08227978
60	0x3d4bb8d3	0.04973681
61	0x3c22a657	0.009927354
62	0xbd74a111	-0.059723917
63	0xbe8a96dd	-0.27068225
64	0x3cb5b5f1	0.022181483
65	0x3d8f25f6	0.06989662
66	0xbde1ddfb	-0.110286675
67	0xbe01e607	-0.12685405
68	0xbd1219ab	-0.03566901
69	0xbc2a1edc	-0.010383334
70	0xbc224078	-0.009903066
71	0xbc2848c7	-0.010271258
72	0xbe88cafc	-0.26717365
73	0x3eb60fef	0.3555903
74	0x3ce3df7a	0.027816523
75	0xbc407b4e	-0.011748148
76	0x3e0312b1	0.12800099
77	0x3c0a99bf	0.0084595075
78	0xbe5d2785	-0.21597107
79	0xbda8b89d	-0.08238337
80	0xbc4afd45	-0.012389486
81	0x3d8bcd7a	0.06826301
82	0x3da2c252	0.0794722
83	0x3d88c6fc	0.06678578
84	0x3dd62010	0.10455334
85	0x3e22d68c	0.15902156
86	0xbe1b123d	-0.15143676
87	0x3df349e2	0.118793264
88	0x3d8206cc	0.06348953
89	0x3cfea864	0.031086154
90	0x3e012c6b	0.126146
91	0xbe2fbf4d	-0.17162819
92	0xbdfc3ffe	-0.12316893
93	0xbdad4d00	-0.08461952
94	0x3db1b879	0.086777635
95	0xbd4194d9	-0.047261093
96	0xbe661940	-0.2247057
97	0x3c3bed52	0.011470156
98	0x3e03ee49	0.12883867
99	0xbe2614fb	-0.16218941
100	0xbd359ce2	-0.04433907
101	0xbbc27177	-0.005933936
102	0x3d8c32c9	0.06845624
103	0x3dc4b555	0.09604899
104	0xbc1d32d3	-0.009594637
105	0x3e27b63e	0.16378114
106	0xbe710516	-0.23537096
107	0x3db02989	0.08601672
108	0x3db60ed3	0.08889546
109	0xbe24fab4	-0.1611126
110	0xbd775316	-0.06038197
111	0x3d185d30	0.037198246
112	0xbc335da9	-0.010947623
113	0xbf006f1f	-0.5016956
114	0x3e2edd3a	0.17076579
115	0x3e2053b9	0.15656938
116	0x3d396649	0.045263562
117	0xbe2e9884	-0.17050368
118	0xbda25dfc	-0.07928082
119	0xbda4576c	-0.08024487
120	0xbe022ad3	-0.12711649
121	0x3df84127	0.12121802
122	0x3e114a08	0.14188397
123	0xbe0cbfa1	-0.13744976
124	0x3dc197b8	0.09452766
125	0xbc2dede2	-0.010615798
126	0xbe029718	-0.1275295
127	0xbe0ca524	-0.13734871
128	0xbd1c2ea9	-0.038130436
129	0x3cc1da79	0.023663746
130	0xbe58bd8b	-0.21166055
131	0x3de0634d	0.1095644
132	0xbd60cd4f	-0.054883298
133	0xbe9078a5	-0.28217044
134	0x3e04ce5f	0.1296935
135	0xbd68321e	-0.05668842
136	0xbd0e1687	-0.034689452
137	0xbd9bc4c8	-0.076058924
138	0xbe631e5d	-0.22179551
139	0xbd81673d	-0.06318519
140	0xbd9533f5	-0.07285301
141	0xbd53a6de	-0.05167281
142	0x3db1c26e	0.08679663
143	0xbd022efb	-0.031783085
144	0xbb31d97f	-0.0027137694
145	0x3dc0945c	0.09403297
146	0x3e1c8f3c	0.15289015
147	0x3d0b82f5	0.034060437
148	0xbdfe1434	-0.12406197
149	0x3c6a310b	0.014293919
150	0x3da2f28b	0.07956418
151	0x3e19f03c	0.15033048
152	0x3e6281f6	0.22119889
153	0x3e0faa62	0.1402984
154	0xbe280859	-0.16409434
155	0x3d99202e	0.07476841
156	0xbc8f7129	-0.017510014
157	0xbe0fe397	-0.14051662
158	0x3e3e4655	0.18581517
159	0xbca9bf6b	-0.020721158
160	0xbd4adc49	-0.049526487
161	0xbc951431	-0.018198105
162	0x3d8a7863	0.06761243
163	0xbe29a6a4	-0.16567475
164	0xbb07084a	-0.0020604306
165	0x3c581089	0.013187536
166	0xbd488dd7	-0.048963394
167	0x3d35c3d4	0.04437621
168	0xbe6c34ce	-0.23067018
169	0x3d652593	0.055944037
170	0xbe37207b	-0.17883484
171	0x3d59dd9d	0.053189863
172	0x3c85ceef	0.016334025
173	0x3e278bfa	0.1636199
174	0xbe784e7a	-0.24248686
175	0xbe0c1e8a	-0.13683525
176	0x3d8a08c1	0.06739951
177	0x3e7bafd8	0.24578798
178	0xbddb1fe7	-0.10699444
179	0xbe10c99d	-0.1413941
180	0x3e5e8f19	0.21734275
181	0x3d39b911	0.04534251
182	0xbc922249	-0.017838614
183	0x3db5f4b0	0.08884561
184	0xbc4fa308	-0.012673147
185	0x3e5ace58	0.21367776
186	0x3e06ecb9	0.1317624
187	0x3d79378b	0.060843986
188	0x3df5e971	0.12007416
189	0xbd54a6fd	-0.051917065
190	0x3dfb13b4	0.122596174
191	0x3e25460d	0.16140004
192	0x3cbeb58c	0.023279928
193	0x3cd7fc86	0.02636553
194	0x3df32b18	0.11873454
195	0xbda980f1	-0.08276547
196	0x3e06be6a	0.13158575
197	0xbe3f3c5d	-0.1867537
198	0x3dc2af94	0.09506145
199	0xbe04be28	-0.12963164
200	0xbd8b8300	-0.06812096
201	0xbe6d4871	-0.23172165
202	0xbe3a1487	-0.18171893
203	0x3deefe38	0.11669582
204	0xbe01facc	-0.12693328
205	0xbd468b34	-0.0484726
206	0xbe437d90	-0.19090867
207	0x3d15dc09	0.036586795
208	0xbb24347d	-0.00250557
209	0xbd8bbbec	-0.06822953
210	0xbbdca3d6	-0.006733398
211	0xbd490fe0	-0.049087405
212	0xbc8f19e7	-0.017468406
213	0x3e4c9e17	0.19982181
214	0xbe8a49d2	-0.27009445
215	0xbe50b85d	-0.20382829
216	0xbd619e47	-0.055082586
217	0xbe3de627	-0.18544827
218	0x3bc3e06a	0.00597768
219	0xbdc8eaae	-0.098103866
220	0xbddd51ac	-0.10806593
221	0xbdc7b15d	-0.09750626
222	0x3d9a0f29	0.07522423
223	0xbd903cb7	-0.070428304
224	0xbba4bc56	-0.005027334
225	0x3d0e7039	0.034774993
226	0xbe17842a	-0.1479651
227	0xbc27a7a6	-0.010232842
228	0xbd8f7e2a	-0.07006486
229	0xbd7a37e4	-0.061088458
230	0x3cb1aefb	0.021689883
231	0xbdf0a054	-0.1174933
232	0x3c20c7ba	0.0098132435
233	0x3a8d1544	0.0010763784
234	0xbda1932a	-0.078893974
235	0xbf00c94f	-0.5030717
236	0xbe3b354b	-0.18282048
237	0x3e3f088e	0.18655607
238	0xbd6e6922	-0.05820573
239	0x3ce6e437	0.028184993
240	0x3d8ca8bb	0.0686812
241	0x3d45ad3c	0.048260912
242	0xbcd1da45	-0.025616774
243	0xbd010c25	-0.031505723
244	0xbddd0a50	-0.107929826
245	0x3c451249	0.012028285
246	0x3cf8c80c	0.030368827
247	0x3e939e5c	0.28831756
248	0xbe66032d	-0.22462149
249	0xbe445f3b	-0.19176953
250	0xbe1fa320	-0.15589571
251	0x3e4b9a30	0.19883037
252	0x3e0ba787	0.13638125
253	0x3ead6a86	0.33870333
254	0xbe457dcf	-0.19286273
255	0x3d983499	0.07431907

fc2.bias f4 [28]
0	0x3d9b9f11	0.07598699
1	0xbd57bbb3	-0.05266924
2	0xbd7194f8	-0.05897996
3	0xbd53fc13	-0.05175407
4	0x3cc6287c	0.024189226
5	0xbda3c224	-0.07996014
6	0xbda60b53	-0.08107629
7	0x3d8106ed	0.06300149
8	0x3cc43e88	0.023955598
9	0x3e024e25	0.12725122
10	0x3dfd47cf	0.12367212
11	0x3d887c26	0.066643044
12	0x3b9dfed0	0.004821636
13	0x3de730ab	0.112885796
14	0xbd7ede36	-0.062223636
15	0xbd43f2dc	-0.04783903
16	0xbd2bae00	-0.041913986
17	0x3d1c66a0	0.03818381
18	0xbdbec8bf	-0.09315633
19	0x3c225b4b	0.009909461
20	0x3df97759	0.12180967
21	0x3d30370d	0.04302125
22	0xbd91f06c	-0.07125935
23	0xbd1a459d	-0.037664045
24	0xbd680647	-0.05664661
25	0xbd51e1f5	-0.05124088
26	0xbc7115d4	-0.014714677
27	0xbd800b57	-0.06252163

fc3.weight f4 [10, 28]
0	0xbea2b18f	-0.3177609
1	0x3d2176d1	0.039419953
2	0x3e34a78b	0.17642038
3	0xbe9c8e5a	-0.30577356
4	0x39a4ef2e	0.0003145872
5	0xbe05a185	-0.13049896
6	0x3e512987	0.20425998
7	0xbe86e258	-0.26344562
8	0x3e9545b3	0.2915474
9	0x3d2a7f16	0.041625105
10	0xbe3740a7	-0.17895757
11	0xbe05a3de	-0.13050792
12	0xbde8681d	-0.11347983
13	0x3ec5d051	0.38635495
14	0x3d014875	0.03156324
15	0x3e9328e1	0.28742126
16	0xbb8ae172	-0.004238301
17	0xbd80b4ea	-0.062845066
18	0x3e8aaac1	0.270834
19	0xbd111c7e	-0.035427563
20	0xbd964e6f	-0.07339179
21	0x3db0da70	0.08635414
22	0xbd1a0d57	-0.037610378
23	0x3f17f3f9	0.5935665
24	0xbdf8af9e	-0.12142871
25	0x3e68853a	0.22707072
26	0x3e52fcf8	0.20604312
27	0xbd95aee2	-0.07308747
28	0xbde8bc0a	-0.113639906
29	0x3d46d89e	0.048546426
30	0xb9514573	-0.00019957665
31	0x3f2e5bd1	0.6810885
32	0x3e8a6620	0.2703104
33	0xbd84d8c5	-0.06486658
34	0xbe5435e6	-0.20723686
35	0xbe4fb118	-0.202824
36	0xbd2002b6	-0.039065085
37	0xbe2a188f	-0.16610931
38	0x3d32ef7a	0.043685414
39	0x3dc7b6b0	0.09751642
40	0xbeb00259	-0.3437679
41	0xbe98d983	-0.29853448
42	0x3eb5b6a8	0.35490918
43	0xbdd17dd8	-0.10229081
44	0x3dd97210	0.10617459
45	0x3be3883c	0.0069437306
46	0x3d865588	0.065592825
47	0x3f2b243b	0.6685216
48	0xbe9ecfd2	-0.3101793
49	0xbe97de6b	-0.2966188
50	0x3ed5d0a5	0.41760746
51	0xbe23dd03	-0.16002278
52	0x3ec2b1ad	0.3802618
53	0xbe357ef6	-0.17724213
54	0xbd193f5c	-0.03741394
55	0x3ed3ea4f	0.413897
56	0x3ee321ed	0.4436182
57	0xbecf7be5	-0.40524212
58	0xbe8b9cf1	-0.27268174
59	0xbd90b319	-0.0706541
60	0xbd92e4a3	-0.07172515
61	0x3dac28db	0.0840623
62	0x3e83b429	0.2572339
63	0x3e9eb423	0.30996808
64	0x3f0ededf	0.55808824
65	0xbefbef64	-0.49206078
66	0xbc2297f1	-0.009923921
67	0x3d9e5462	0.077309385
68	0x3ed0b6a8	0.40764356
69	0xbe10d6e9	-0.14144482
70	0x3ea804a0	0.3281603
71	0x3e88dbbd	0.26730147
72	0xbe8a5d1e	-0.27024168
73	0xbee25616	-0.44206303
74	0xbd8f1dc9	-0.06988103
75	0x3e9009d8	0.2813251
76	0x3d96e6e5	0.073682584
77	0x3e6faacc	0.23404998
78	0xbde38253	-0.11108842
79	0x3dcc7968	0.09984094
80	0x3e881e30	0.2658553
81	0x3ea23553	0.31681308
82	0x3eae0893	0.33990917
83	0x3e85d92b	0.2614225
84	0xbbac3118	-0.005254876
85	0xbdb0761a	-0.08616276
86	0xbee4ac63	-0.4466277
87	0x3ee0e939	0.43927935
88	0x3e349237	0.17633902
89	0xbd57a90e	-0.052651457
90	0xbd51b0d2	-0.05119402
91	0x3d8a2d59	0.06746931
92	0x3f254318	0.645555
93	0x3eb5a602	0.35478216
94	0xbe0be2a5	-0.13660677
95	0x3ea87163	0.32899007
96	0x3d47474b	0.048651975
97	0xbe85b97f	-0.26118085
98	0x3d8dffa3	0.069335245
99	0xbe900e1e	-0.2813577
100	0xbe980f40	-0.29699135
101	0xbce55a2f	-0.027997104
102	0xbeac0c57	-0.33603165
103	0xbf12c8bb	-0.5733754
104	0xbda1a1d3	-0.07892194
105	0x3e9e95d6	0.3097369
106	0x3ea80662	0.3281737
107	0xbe55bfca	-0.20873943
108	0xbe4c70ca	-0.199649
109	0x3da0097d	0.0781431
110	0xbeb1bafc	-0.3471297
111	0xbe95f228	-0.29286313
112	0x3ee2f274	0.44325602
113	0x3ea38eb1	0.31944802
114	0xbed2bcc2	-0.41159636
115	0x3e96818e	0.29395717
116	0x3e29bc8f	0.16575836
117	0xbed5a989	-0.41730908
118	0xbf1cd6c3	-0.612652
119	0xbe1df694	-0.15426093
120	0xbe9a42e0	-0.30129147
121	0xbe231b7b	-0.15928452
122	0x3ee08e64	0.43858635
123	0xbf04a1b9	-0.5180927
124	0xbe57b3d2	-0.2106469
125	0xbdb39618	-0.087688625
126	0x3ec8b437	0.39199993
127	0x3d646003	0.055755626
128	0x3e74d9d3	0.23911218
129	0x3d7c2dec	0.061567232
130	0xbc565277	-0.013081185
131	0x3c083f75	0.008315911
132	0xbe117989	-0.14206518
133	0xbeb1f18c	-0.34754598
134	0x3ea06cee	0.31333107
135	0xbd07d6d2	-0.033163853
136	0xbe9c53a5	-0.30532566
137	0xbdb1f35c	-0.08688995
138	0x3e4ebc88	0.20189106
139	0x3dd11aa5	0.1021016
140	0x3e55817e	0.20850179
141	0xbd070e71	-0.032972757
142	0x3c7b702d	0.015346569
143	0xbeedfbec	-0.46481264
144	0x3d3a0f23	0.04542459
145	0x3e2b07e9	0.16702236
146	0xbd3927cc	-0.04520397
147	0xbd0aed53	-0.033917736
148	0xbd82cab1	-0.063863166
149	0xbe9e3362	-0.30898577
150	0x3e1d9f90	0.153929
151	0x3ed1014e	0.40821308
152	0x3e4f965b	0.202722
153	0xbe0f0816	-0.13967928
154	0xbf223c50	-0.6337328
155	0xbdf06ebf	-0.11739873
156	0x3e869cef	0.26291606
157	0x3ea621a9	0.32447556
158	0xbe4cbf78	-0.19994915
159	0xbedd94f8	-0.43277717
160	0x3e2d8c1b	0.16947977
161	0xbe28f694	-0.16500312
162	0xbd7b296d	-0.061318804
163	0xbe1293ff	-0.14314269
164	0xbc02dad0	-0.007986739
165	0xbe1b0829	-0.15139832
166	0xbe78cedc	-0.2429766
167	0xbf2813ca	-0.65655196
168	0x3e81aecc	0.25328672
169	0xbd2d1d1e	-0.042264096
170	0x3d95f923	0.0732291
171	0xbb333b94	-0.0027348744
172	0x3e3d1173	0.18463688
173	0x3e1bad31	0.15202786
174	0xbeb58761	-0.35454848
175	0xbf150cc2	-0.5822259
176	0xbde92dcc	-0.11385688
177	0xbe918eec	-0.28429353
178	0x3eae1606	0.34001178
179	0xbebea5e8	-0.3723595
180	0x3e0d256a	0.13783804
181	0x3ef92e21	0.48668006
182	0xbd2a888e	-0.041634135
183	0xbe17f84b	-0.1484081
184	0xbe02163c	-0.12703794
185	0x3c81b0d7	0.015831394
186	0x3f053e07	0.5204777
187	0x3ca15f5f	0.019698797
188	0xbd862f6a	-0.06552012
189	0x3e77ad77	0.24187265
190	0x3c8e6491	0.017381938
191	0x3e3dfaaa	0.18552652
192	0x3c2e16f8	0.010625593
193	0xbec67dc6	-0.38767833
194	0xbe9d722f	-0.30751178
195	0x3eadd050	0.33947992
196	0xbe9a218b	-0.30103716
197	0xbdc415f9	-0.095745035
198	0xbe2395d1	-0.15975119
199	0x3e27d309	0.16389097
200	0xbedb79a4	-0.42866242
201	0xbe209050	-0.15680051
202	0x3ea1338e	0.31484646
203	0x3e8bf28f	0.27333495
204	0x3e22a9a1	0.15885021
205	0xbdb66f7d	-0.089079835
206	0x3e1c1d0d	0.15245457
207	0xbcfab06b	-0.0306017
208	0x3d404745	0.046942968
209	0xbe81d5f2	-0.2535854
210	0x3ec5c91a	0.3862999
211	0xbe645ac6	-0.22300252
212	0x3ef23f15	0.47313753
213	0xbd8ac853	-0.0677649
214	0x3f213e78	0.62985945
215	0x3e1549b9	0.14578904
216	0xbe7f08df	-0.24905728
217	0xbe9e7be5	-0.309539
218	0x3c9abcd7	0.018888874
219	0x3ec2e277	0.38063404
220	0xbeb2bd41	-0.34910014
221	0xbcd01943	-0.02540267
222	0xbe97c9c2	-0.29646116
223	0x3e95eae4	0.2928077
224	0x3ec66867	0.38751528
225	0xbd81b381	-0.06333066
226	0xbe2924bb	-0.16517918
227	0xbe211b48	-0.15733063
228	0x3e6cf033	0.23138504
229	0xbf01a647	-0.50644344
230	0xbe9dd9dc	-0.30830276
231	0x3e69ec9a	0.22844163
232	0x3eb64a2e	0.3560347
233	0x3e4ad1a6	0.19806537
234	0x3ecc7f29	0.39940766
235	0x3e98c053	0.29834232
236	0x3db4af1a	0.088224605
237	0x3e10eefd	0.14153667
238	0xbe1e0c04	-0.15434271
239	0xbd97fd7e	-0.07421397
240	0xbf1b1e05	-0.6059268
241	0x3dff6851	0.12471069
242	0x3e838a62	0.25691515
243	0x3d98f93d	0.074694134
244	0x3e1eeb60	0.15519476
245	0xbcfa1839	-0.030529128
246	0xbeb45364	-0.35219872
247	0x3d4b9ffe	0.049713127
248	0x3e685b46	0.22691068
249	0xbbf4cff1	-0.0074710776
250	0xbebcaa42	-0.36848646
251	0x3b2905e0	0.0025790855
252	0x3ebd43cc	0.36965787
253	0x3e306251	0.17225005
254	0x3e9fb449	0.31192234
255	0xbde7212e	-0.112856254

fc3.bias f4 [10]
0	0xbdaa0379	-0.083014436
1	0xbdf6cd42	-0.120508686
2	0xbe0ed5bb	-0.13948719
3	0x3c1e6dc4	0.009669725
4	0x3c3b5d88	0.011435874
5	0x3d45c31d	0.048281778
6	0xbbd312d2	-0.0064414525
7	0xbd231855	-0.039818127
8	0x3dc1109a	0.094269946
9	0x3e23a9d5	0.15982755
