logisticregression/model/model.pkl (torch, 800065 bytes, 6 tensors)

weight f4 [200, 784]
0	0x3cfbc2f3	0.030732607
1	0xbcd06e7c	-0.025443308
2	0x3cb1e586	0.02171589
3	0xbd266677	-0.04062506
4	0x3ce0d0f1	0.027443381
5	0x3d160c50	0.036632836
6	0x3d1ed4e1	0.038777236
7	0x3d0f5e71	0.035002176
8	0x3df41556	0.11918132
9	0x3dcfc88d	0.10145674
10	0x3da25355	0.079260506
11	0x3cf495ca	0.029856581
12	0xbd8b2906	-0.06794934
13	0x3d44bc77	0.048031297
14	0x3d196d88	0.037457973
15	0x3bd6f16e	0.0065595424
16	0xbc45963c	-0.012059744
17	0xbbe7baf4	-0.007071847
18	0xbdaa5d97	-0.08318632
19	0x3aeb6959	0.0017960473
20	0xbd064449	-0.032779966
21	0xbc987487	-0.018610252
22	0xbd56c23d	-0.052431334
23	0xbd5c6f79	-0.053817246
24	0x3c632dc8	0.013865896
25	0x3d86ecf4	0.06588164
26	0x3d6d8205	0.057985324
27	0x3cbaebec	0.022817574
28	0xbd0a14fa	-0.03371141
29	0x3c844273	0.016144967
30	0x3d847095	0.06466786
31	0x3d07dabb	0.033167582
32	0xbdcfa324	-0.101385385
33	0xbbdb6e3a	-0.0066964896
34	0x3cc0ae22	0.023520533
35	0xbcbbd473	-0.022928452
36	0x3e134dd8	0.14385164
37	0xbce43707	-0.02785827
38	0x3d3a7586	0.045522235
39	0x3d48a7c7	0.04898813
40	0x3c2ca948	0.010538407
41	0x3daf5c0a	0.08562477
42	0x3ceb365b	0.028712442
43	0x3d2d3382	0.04228545
44	0x3cb474b8	0.022028312
45	0x3e0d8888	0.13821614
46	0x3d9e58e9	0.07731802
47	0x3d6016cc	0.05470924
48	0x3ba3a1b1	0.0049936404
49	0x3b5ac030	0.0033378713
50	0xbcabef5b	-0.020988157
51	0x3ccb6c54	0.024831928
52	0x3db20437	0.0869221
53	0xbdadb681	-0.084820755
54	0x3bbef640	0.005827695
55	0xbdb3c64b	-0.08778056
56	0x3dde3ec2	0.10851814
57	0x3d9ffc1a	0.078117564
58	0x3dfd4789	0.1236716
59	0xbd76f79d	-0.060294736
60	0xbd0bb3a8	-0.03410688
61	0x3cfacc49	0.030614989
62	0x3d2273d1	0.039661232
63	0x3d78baf3	0.060725164
64	0xbcce101f	-0.025154172
65	0x3d621656	0.055197082
66	0x3d9d8833	0.076919936
67	0xbd333295	-0.04374941
68	0xbce7885b	-0.028263262
69	0xbc19050f	-0.009339585
70	0x3d74c341	0.05975652
71	0xbcf111d3	-0.029427445
72	0x3d816899	0.063187785
73	0xbd319a07	-0.043359783
74	0x3d8d673c	0.06904456
75	0x3d84195d	0.0645015
76	0xbd1e8b54	-0.038707092
77	0x3d5994ed	0.053120542
78	0x3d792565	0.060826678
79	0x3dd30a0a	0.10304649
80	0x3c3d9bfa	0.011572832
81	0xbd420e4b	-0.047376912
82	0x3d5005f4	0.050786927
83	0x3d2ab298	0.041674227
84	0x3cc9ff04	0.024657734
85	0x3dadff98	0.08496016
86	0x3b856675	0.0040710517
87	0x3d0a089d	0.03369962
88	0x3c9cd0f5	0.019142607
89	0xbcb64c2b	-0.022253117
90	0x3c7a7b46	0.01528818
91	0xbca47548	-0.020075455
92	0x3d7a8dc9	0.061170373
93	0xbafcf17d	-0.0019298043
94	0x3d3a4a33	0.04548092
95	0x3d87c32e	0.066290244
96	0x3d8d0ae2	0.06886841
97	0xbdfac1f9	-0.122440286
98	0xbe1d67d9	-0.15371646
99	0xbe1734f0	-0.14766288
100	0xbd987b44	-0.07445386
101	0x3cf7a924	0.03023202
102	0x3d627c41	0.05529428
103	0x3d5b43cc	0.053531453
104	0xbe1c66b7	-0.15273558
105	0xbdbf0975	-0.09327976
106	0x3d293d89	0.04131845
107	0xbd07bc2b	-0.033138435
108	0xbd888540	-0.066660404
109	0x3ce9392d	0.028469646
110	0x3db302bb	0.08740755
111	0x3de42bdb	0.11141177
112	0xbc92513c	-0.017861001
113	0xbae7d092	-0.001768606
114	0xbc544392	-0.012955563
115	0x3d92c96e	0.07167326
116	0x3c95d6e2	0.01829094
117	0xbc16d7b3	-0.0092067
118	0x3e2c4102	0.16821674
119	0x3c60b0db	0.013714041
120	0xbc715d88	-0.014731772
121	0xbdd2e444	-0.102974445
122	0xbb560b3d	-0.0032660507
123	0x3ac71550	0.0015188847
124	0xbdb0127e	-0.08597277
125	0xbdcf82e2	-0.10132386
126	0xbda7b55a	-0.08188887
127	0xbc8dbb08	-0.017301098
128	0xbd0d80eb	-0.034546774
129	0xbc9f085b	-0.019413164
130	0xbb809779	-0.003924307
131	0xbd088bfb	-0.03333662
132	0xbe3e349e	-0.1857476
133	0xbe440bfa	-0.19145194
134	0xbda366c5	-0.07978586
135	0x3d0e24f2	0.034703203
136	0xba7743f7	-0.000943243
137	0x3e1b70f0	0.15179801
138	0x3dbbf816	0.09178178
139	0x3d573109	0.052536998
140	0xbdea1e2a	-0.114315346
141	0x3def1135	0.11673204
142	0xbc3a305f	-0.011364072
143	0xbd3e2160	-0.046418548
144	0x3ca78e4b	0.020453593
145	0xbc00f865	-0.007871722
146	0x3d40f9f1	0.047113363
147	0xbd75a53e	-0.05997204
148	0xbda2f330	-0.079565406
149	0xbcc2505b	-0.023719957
150	0xbdca4b93	-0.09877696
151	0xbdcecdd5	-0.10097853
152	0xbe3dc0b0	-0.18530536
153	0xbe4f8130	-0.20264125
154	0xbe5e35e1	-0.2170024
155	0x3d742f0d	0.059615184
156	0xbd91fed6	-0.07128684
157	0xbd9d0334	-0.076666266
158	0xbd9d3b1f	-0.07677292
159	0xbd11212c	-0.035432026
160	0xbd78f08e	-0.060776286
161	0xbe043ee9	-0.12914623
162	0xbe0e1e9f	-0.13878869
163	0xbdac4576	-0.08411686
164	0xbd9c5ee6	-0.07635288
165	0x3d95783d	0.07298324
166	0x3c41bb58	0.011824451
167	0xbd79d3c4	-0.06099297
168	0x3d0d8207	0.034547832
169	0x3c4c07ae	0.012453003
170	0xbd49f60c	-0.049306914
171	0x3db24158	0.087038696
172	0xbd18b3e5	-0.037280936
173	0xbc47f376	-0.012204042
174	0x3bb42997	0.005498122
175	0xbd85f463	-0.06540754
176	0xbdaad6ff	-0.083417885
177	0xbe222d1e	-0.15837523
178	0xbe606d4e	-0.21916696
179	0xbe324756	-0.17410025
180	0xbe8a5829	-0.27020386
181	0xbe27de56	-0.16393408
182	0xbcbd97bb	-0.02314364
183	0x3c325978	0.010885589
184	0xbd6acbad	-0.057323147
185	0xbe04090d	-0.12894078
186	0xbe2d0706	-0.1689721
187	0xbd7bbd19	-0.061459634
188	0xbe821599	-0.25407103
189	0xbd9bb276	-0.07602398
190	0xbdbc6c6a	-0.09200366
191	0xbd98d092	-0.07461657
192	0xbe00945c	-0.12556595
193	0xbd7ee7e6	-0.062232874
194	0xbd02bd93	-0.031919073
195	0xbd896a71	-0.06709755
196	0x3d2797c9	0.040916238
197	0xbd85e762	-0.065382734
198	0x3c963bca	0.018339057
199	0x3d472a5e	0.04862439
200	0x3dd348ca	0.10316618
201	0xbd12b7d5	-0.035819847
202	0x3cdad804	0.026714332
203	0xbdd9fb34	-0.10643616
204	0xbde07112	-0.109590665
205	0xbe2dc1fc	-0.1696853
206	0xbe5bd990	-0.21469712
207	0xbe6d1633	-0.23153
208	0xbe62a86a	-0.22134557
209	0xbe372caa	-0.17888132
210	0x3d903f62	0.07043339
211	0x3ce52f8c	0.027976774
212	0x3da73f28	0.08166343
213	0xbd9a1c46	-0.07524924
214	0xbe35d220	-0.17755938
215	0xbe680703	-0.22658925
216	0xbeae7dfe	-0.340805
217	0xbde6b630	-0.11265218
218	0xbd2470d7	-0.040146675
219	0xbda963c3	-0.08270981
220	0xbe449f0f	-0.19201301
221	0xbd8cc673	-0.06873789
222	0x3d269271	0.040667
223	0x3dc1fb26	0.09471731
224	0xbd8036a2	-0.062604204
225	0xbc3d049a	-0.011536742
226	0xbb931fee	-0.0044898903
227	0x3d9aca89	0.07558162
228	0x3d2b4f1a	0.041823484
229	0x3c488f61	0.012241215
230	0xbe12fd0e	-0.14354345
231	0xbdf4c47a	-0.119515374
232	0xbe588184	-0.21143156
233	0xbe0c2ee7	-0.13689767
234	0xbe2e3e98	-0.17016065
235	0xbe4298df	-0.19003628
236	0xbdd16fe4	-0.102264196
237	0xbd89b213	-0.06723418
238	0xbd569ed9	-0.052397583
239	0x3d751168	0.059831053
240	0x3c83ac55	0.016073385
241	0x3d3e5672	0.04646916
242	0xbcdb4827	-0.026767803
243	0x3de11a44	0.10991338
244	0x3dca9c5f	0.09893107
245	0x3e00e31b	0.12586634
246	0x3ddb7455	0.10715548
247	0x3d68e4d3	0.05685885
248	0x3dfa3b79	0.12218375
249	0x3e255259	0.16144694
250	0x3ba3ceda	0.004999024
251	0xbd1e09a7	-0.038583424
252	0xbc3c5b7a	-0.011496419
253	0x3c69859e	0.014253048
254	0xbd936256	-0.071964905
255	0x3aef9c3f	0.0018280818

bias f4 [200]
0	0xbcbf7051	-0.023368986
1	0xbaece341	-0.0018073098
2	0xbcfdaf57	-0.030967398
3	0xbd140b16	-0.036143385
4	0xbad119f9	-0.0015953175
5	0x3cc44aae	0.023961391
6	0xbcfc3b5f	-0.03079003
7	0x3bae0382	0.0053104768
8	0xbbf0d9bf	-0.007350176
9	0xbc9455dd	-0.018107349
10	0xbc358de4	-0.011081193
11	0xbd562819	-0.052284334
12	0x3c07b4eb	0.00828288
13	0xbca58c9e	-0.020208653
14	0xbce355f0	-0.02775094
15	0xb9591ff8	-0.00020706642
16	0xbd266d6e	-0.040631704
17	0xbc4facf8	-0.012675516
18	0xbd5ceb94	-0.053935602
19	0xbc057641	-0.00814587
20	0xbc6e2e69	-0.014537432
21	0xbc37c9fd	-0.011217591
22	0xbd51f855	-0.05126222
23	0xbc4ea766	-0.012613153
24	0xbc54bfbd	-0.012985167
25	0xbce3e7f7	-0.02782057
26	0xbd0aefa7	-0.033919957
27	0xbd00f30b	-0.031481784
28	0xbca33da4	-0.019926853
29	0xbcec309f	-0.028831778
30	0xbca157aa	-0.019695122
31	0xbc8b8290	-0.01703003
32	0xba470793	-0.0007592376
33	0x3c518135	0.012787153
34	0xbd19eb4f	-0.037577923
35	0x3b1740d1	0.0023079405
36	0xbc155e71	-0.009116755
37	0xbc907d8c	-0.01763799
38	0xbcaba84d	-0.020954276
39	0xbc9d5149	-0.019203799
40	0xbd05c8d6	-0.032662235
41	0xbd876566	-0.06611137
42	0xbca1d42b	-0.01975449
43	0xbc746542	-0.01491672
44	0x3b6e6a9a	0.0036379457
45	0xbd218f48	-0.039443284
46	0x3c8c907f	0.017158745
47	0xbabd8b46	-0.0014461062
48	0xbd10f67b	-0.035391312
49	0xbd1346f3	-0.035956334
50	0xbb0a645e	-0.0021116952
51	0xbc548f5c	-0.012973633
52	0x3a79c07c	0.00095272786
53	0xbcb6b891	-0.022304805
54	0xbc18d22c	-0.009327453
55	0xbb48e462	-0.0030653705
56	0xbd1d9d82	-0.03848029
57	0x3a0fdcce	0.00054879196
58	0xbaae3cb2	-0.0013293235
59	0xbd12a760	-0.035804152
60	0xbc0bb45b	-0.008526887
61	0xbd32d17d	-0.043656815
62	0xbcca46f4	-0.024692036
63	0x3b7cec6b	0.0038593065
64	0xbc98f562	-0.018671695
65	0x3ba6a901	0.005086065
66	0xbce5bccf	-0.028044133
67	0xbcc58595	-0.024111548
68	0xbc551f55	-0.013007958
69	0xbcd84131	-0.026398273
70	0xbcce8cc6	-0.02521361
71	0xbd29e5a2	-0.04147876
72	0xbd20ac97	-0.039227095
73	0xbd1522a0	-0.036409974
74	0xbd1dd6b0	-0.03853482
75	0x3c04fe36	0.008117249
76	0xbcfb6f6c	-0.030692779
77	0xbd2fd606	-0.042928718
78	0xbc8df5f1	-0.017329188
79	0x3c60128e	0.013676299
80	0xbd5b627d	-0.053560723
81	0xbcf28891	-0.029606136
82	0xbc2bf279	-0.010494822
83	0x39ea6da1	0.00044713638
84	0xbcd0c490	-0.025484353
85	0xbc95fdcb	-0.018309494
86	0xbcbd2fad	-0.023094023
87	0xbca9e3fc	-0.020738594
88	0xbca85810	-0.020549804
89	0xbc9c0d73	-0.019049382
90	0xbd4869e2	-0.048929103
91	0xbd2ddad3	-0.042445015
92	0x3bb0ffbe	0.0054015806
93	0xbce5162f	-0.02796468
94	0x3b9371cf	0.004499651
95	0x3c6337ac	0.013868254
96	0xbd19c63b	-0.037542563
97	0xbc9dbf30	-0.019256204
98	0x3bc32bce	0.0059561497
99	0xbc5263ed	-0.012841207
100	0xbc9873ee	-0.018609967
101	0xbc11d7ff	-0.008901595
102	0x3a805745	0.0009791633
103	0xbcd43e8a	-0.025908727
104	0x3ae8c467	0.0017758728
105	0xbd1cb58f	-0.038259085
106	0xbd361bd6	-0.04446014
107	0xbbe860bb	-0.0070916093
108	0x3b975299	0.0046180007
109	0xbc73c8aa	-0.014879385
110	0xbcd5eeb6	-0.026114803
111	0xbbcd087a	-0.006257114
112	0xbd14aa49	-0.03629521
113	0xbc72af52	-0.014812307
114	0xbbc5b0ff	-0.0060330625
115	0xbc11248b	-0.00885881
116	0xbd308d48	-0.043103486
117	0xbc5ccb8e	-0.013476266
118	0xbd21f3d2	-0.039539166
119	0xbc84b6d2	-0.016200457
120	0xbcb0070b	-0.021487733
121	0xbc9b9888	-0.018993631
122	0xbc6543eb	-0.013993244
123	0xbc4ed613	-0.012624281
124	0xbc9fdd69	-0.019514756
125	0xbd043fd1	-0.032287423
126	0xbc949af9	-0.018140303
127	0xbd0a1422	-0.033710606
128	0xbd31519c	-0.04329072
129	0xbd120647	-0.035650518
130	0xbb14eab9	-0.0022722913
131	0xbd4d9dea	-0.050199427
132	0xbc476234	-0.01216941
133	0xbb0c0455	-0.0021364887
134	0x3cd2d458	0.025736019
135	0xbcdb669b	-0.026782325
136	0x3c29c4e3	0.010361883
137	0xbcb6fcd9	-0.022337364
138	0xbbe25d44	-0.006908091
139	0xbd185aa9	-0.037195835
140	0xbb60dce6	-0.0034311353
141	0xbb31e43b	-0.0027144093
142	0xbcc67337	-0.02422486
143	0xbcbb5c38	-0.022871122
144	0xbc0961c0	-0.008385122
145	0x3c1ef5ec	0.009702187
146	0x3bfc0a8f	0.0076916884
147	0xbc2bb301	-0.01047969
148	0xbd445b01	-0.04793835
149	0xbc71cc23	-0.014758143
150	0xbd33152d	-0.043721367
151	0x3bc7e4eb	0.006100287
152	0x3b9ca2fe	0.0047801724
153	0x3c5357e0	0.012899369
154	0x3bd414f6	0.0064722253
155	0xbc97fa76	-0.018552046
156	0xbbc0ee8d	-0.0058878125
157	0xbc86cdc9	-0.016455548
158	0xbd0cb1b1	-0.034349147
159	0x3ca8f21b	0.020623257
160	0xbc843a38	-0.016141042
161	0xbcbc5508	-0.022989765
162	0xbc72d74e	-0.01482184
163	0xbc5b5876	-0.01338779
164	0xbd4b02ab	-0.04956309
165	0xbcf4101a	-0.029792834
166	0xbcd52f6e	-0.026023593
167	0xbc7b0f6d	-0.015323502
168	0xbb004de2	-0.0019577672
169	0xbc94d783	-0.01816917
170	0xbc47c708	-0.012193449
171	0x3b510972	0.00318965
172	0xbc865964	-0.016400047
173	0xbd09522a	-0.033525623
174	0xbc4eaa67	-0.012613869
175	0xbd1d735a	-0.038440086
176	0x3c3a5a5b	0.0113740815
177	0xbd04208b	-0.032257598
178	0x3a4daa73	0.00078455283
179	0xbc21b96d	-0.009870869
180	0xbd3c0a22	-0.0459081
181	0xbcee3b88	-0.029081121
182	0xbcbd72d2	-0.02312604
183	0xbcf04f59	-0.02933471
184	0xbcfe122a	-0.03101452
185	0xbc918482	-0.01776338
186	0x3c4fb356	0.012677034
187	0xbcb34333	-0.021882629
188	0x3ac7b199	0.0015235423
189	0x3c314134	0.010818768
190	0xbd28b155	-0.041184742
191	0xbd0b8897	-0.03406581
192	0xbc4db95e	-0.012556402
193	0xbd890f76	-0.06692402
194	0xbc8b36e5	-0.01699395
195	0xbd21ff72	-0.039550252
196	0x3ac0bfc2	0.0014705586
197	0xbb6ce588	-0.0036147553
198	0xbd06d6c1	-0.03291965
199	0xbd24f46a	-0.040272154

weight f4 [200, 200]
0	0xbddcd686	-0.107831046
1	0xbdc7cbdb	-0.09755679
2	0xbe473f32	-0.19457701
3	0xbe5386d9	-0.20656909
4	0x3df4309b	0.11923333
5	0xbde2975e	-0.11064027
6	0xbd91f114	-0.0712606
7	0x3c177dc4	0.009246293
8	0x3d6cd5ff	0.05782127
9	0xbe3d9e12	-0.1851733
10	0xbdb52ae3	-0.088460706
11	0x3d790c01	0.060802463
12	0xbdf5922c	-0.11990771
13	0xbcb6ecf3	-0.022329783
14	0x3da80e46	0.082058474
15	0x3e02028a	0.12696281
16	0xbe601597	-0.21883236
17	0xbd71a542	-0.058995493
18	0xbdf79bdb	-0.12090274
19	0xbcf397f0	-0.029735535
20	0xbe9bd0de	-0.3043279
21	0x3ddd21b9	0.10797448
22	0xbcd6be8d	-0.026213909
23	0x3e33c108	0.17554104
24	0xbcb02cbf	-0.021505712
25	0xbe185204	-0.14875036
26	0xbb2429b8	-0.002504928
27	0xbd8d7cf4	-0.069085985
28	0xbdd2bb77	-0.10289662
29	0xbd008670	-0.03137821
30	0xbdad1bfc	-0.08452603
31	0xbe2757c1	-0.16342069
32	0x3ba54ecc	0.0050447937
33	0xbccc37d0	-0.024928957
34	0x3cedb208	0.029015556
35	0xbd7f12b5	-0.0622737
36	0xbe2a18ff	-0.16611098
37	0xbdb92050	-0.09039366
38	0xbd57754f	-0.05260211
39	0xbe62b282	-0.22138408
40	0x3d9bf6e0	0.07615447
41	0xbea972f6	-0.3309552
42	0x3d1d5b8a	0.038417377
43	0xbded18ed	-0.1157702
44	0xbd5f34ee	-0.054493837
45	0xbd74a3d5	-0.059726555
46	0x3e93c87a	0.2886389
47	0xbd6fcf79	-0.05854747
48	0xbde77970	-0.11302459
49	0x3c509685	0.012731199
50	0x3e1853e2	0.14875749
51	0x3cb23472	0.021753523
52	0xbd6d352a	-0.05791203
53	0x3dc14396	0.09436719
54	0x3d52d2d1	0.05147058
55	0xbc80e931	-0.015736194
56	0xbceb2af6	-0.028707009
57	0xbe648624	-0.22316796
58	0x3d49abaf	0.049235996
59	0x3d248a82	0.040171154
60	0xbd73fcd7	-0.0595673
61	0xbe5d7d55	-0.21629842
62	0xbd9862a9	-0.07440693
63	0x3e0a8473	0.13527088
64	0x3e2baffc	0.16766351
65	0x3e1b8d4c	0.15190619
66	0xbde8f9c2	-0.113757625
67	0x3e4fa4f7	0.20277773
68	0xbd089ab9	-0.03335068
69	0xbdc1c444	-0.09461263
70	0xbd8e3489	-0.06943614
71	0xbe57a0a0	-0.21057367
72	0xbce44ec3	-0.027869588
73	0xbe2f6ecb	-0.17132108
74	0xbd9edd74	-0.077570826
75	0x3e1cee1a	0.15325204
76	0x3d8d7aec	0.06908211
77	0x3cc4c406	0.024019253
78	0xbdb4712f	-0.088106506
79	0xbd338366	-0.043826483
80	0xbdf1b086	-0.11801247
81	0x3e3e023b	0.18555538
82	0xbe0efdd6	-0.13964018
83	0xbe0d0ec9	-0.13775171
84	0xbe435c0e	-0.19078085
85	0xbd0ce9ad	-0.034402538
86	0xbabbb68f	-0.0014321374
87	0xbc288e3d	-0.0102878185
88	0xbcce48f8	-0.025181279
89	0xbcd465f0	-0.025927514
90	0xbe51438c	-0.20435923
91	0xbceadf36	-0.028670888
92	0xbdab300e	-0.08358775
93	0x3c063b8d	0.008192909
94	0xbe209638	-0.15682304
95	0x3ce2cc3c	0.027685277
96	0x3df89f64	0.12139776
97	0xbe39bed6	-0.18139204
98	0x3d0336ca	0.032034673
99	0x3af71818	0.0018851785
100	0x3d721b5f	0.059108134
101	0x3d81dfa3	0.063414834
102	0xbdcf338b	-0.10117253
103	0xbe08c548	-0.13356507
104	0x3c5f63f4	0.0136346705
105	0x3dabe4f6	0.0839328
106	0xbd6eb055	-0.058273632
107	0x3c5804df	0.013184755
108	0xbe1d226b	-0.1534516
109	0x3d4564cd	0.048191834
110	0x3cb4ccea	0.022070367
111	0xbe4a356b	-0.1974694
112	0xbd6f34ee	-0.058400087
113	0xbdf9a356	-0.12189357
114	0x3dc09025	0.094024934
115	0xbde5a6bb	-0.11213442
116	0x3d2e17b0	0.04250306
117	0xbe0a73a4	-0.13520676
118	0x3e38c365	0.18043287
119	0x3db32c8f	0.08748733
120	0xbdfa93ce	-0.12235223
121	0x3e403c9a	0.18773118
122	0xbc7c4dfb	-0.015399451
123	0xbe357950	-0.17722058
124	0xbe0c9035	-0.13726886
125	0xbe051eb1	-0.12999989
126	0xbea310c4	-0.3184873
127	0xbdf03336	-0.11728518
128	0x3d34d4b7	0.044148173
129	0xbd82d627	-0.063885026
130	0x3d06c7bf	0.032905336
131	0xbeba44ef	-0.36380717
132	0xbe525fd5	-0.2054437
133	0xbd370955	-0.044686634
134	0xbd9198d4	-0.07109228
135	0xbca22826	-0.019794535
136	0xbd8ef154	-0.069796234
137	0xbe0872e7	-0.13325082
138	0xbd64117a	-0.05568073
139	0xbdb23e90	-0.08703339
140	0x3e329f70	0.17443633
141	0xbd808041	-0.062744625
142	0xbd81d625	-0.06339673
143	0x3e3d88ae	0.1850917
144	0x3e8ba156	0.27271527
145	0x3e1bf14b	0.15228765
146	0x3d967d78	0.0734815
147	0x3cb431f8	0.021996483
148	0x3ccbfe25	0.024901459
149	0xbe43f788	-0.19137394
150	0xbde54ff1	-0.11196888
151	0x3e37d4a9	0.17952217
152	0xbe064dfa	-0.13115683
153	0xbdb70e5c	-0.08938286
154	0xbd6a35a3	-0.05718006
155	0xbe109232	-0.14118269
156	0x3ceef397	0.029168887
157	0x3de1183e	0.10990952
158	0xbe2db5e4	-0.16963917
159	0x3e4cc7bd	0.19998069
160	0x3e1af0c6	0.1513091
161	0xbe1fcae4	-0.1560474
162	0xbcd03fb3	-0.025421
163	0x3de41a2e	0.11137806
164	0x3d7283b8	0.059207648
165	0xbdd7fa48	-0.10545784
166	0xbdf65ebc	-0.12029788
167	0xbe4fb396	-0.2028335
168	0x3e0c0595	0.13674004
169	0xbc21ce2f	-0.009875818
170	0x3debf00e	0.11520396
171	0x3c002c1c	0.0078230165
172	0xbe8a9aa1	-0.27071097
173	0xbe40b397	-0.18818508
174	0x3e4767aa	0.19473138
175	0x3cc6e882	0.02428079
176	0xbda19fb4	-0.07891789
177	0x3d9a24e3	0.07526567
178	0x3c662479	0.014046782
179	0x3b8b6881	0.004254401
180	0xbc12fc1c	-0.00897124
181	0xbe4bc4e1	-0.19899322
182	0x3dafe591	0.08588708
183	0xbd497c06	-0.049190544
184	0xbce7f723	-0.028316086
185	0xbcc3596c	-0.02384635
186	0xbdc5bddc	-0.096553534
187	0xbe08224e	-0.13294336
188	0x3dfa9079	0.12234587
189	0x3dae0017	0.08496111
190	0xbd1358e8	-0.03597346
191	0xbd9d2e96	-0.07674901
192	0xbda661e8	-0.08124143
193	0x3da903ad	0.08252654
194	0xbe567b30	-0.2094543
195	0x3cbc4a5d	0.022984678
196	0xbc02b260	-0.007977098
197	0x3c7ca59f	0.0154203465
198	0xbce19af3	-0.027539706
199	0x3bab4d93	0.0052277534
200	0x3d2b9885	0.0418935
201	0xbdb932f7	-0.09042924
202	0x3e18d7e8	0.14926112
203	0xbda3aac2	-0.07991554
204	0x3dc911e9	0.09817869
205	0x3d8eb570	0.069682
206	0xbd833594	-0.064067036
207	0xbd751fa2	-0.05984462
208	0x3d86018d	0.065432645
209	0x3e57734b	0.21040075
210	0x3dcdcf2c	0.100492805
211	0xbc9e0680	-0.019290209
212	0xbe1183fc	-0.14210504
213	0x3e597e7a	0.21239653
214	0x3e47d1cc	0.19513625
215	0x3d1af79f	0.037833806
216	0xbd8e38ea	-0.06944449
217	0x3ea4e41b	0.3220528
218	0xbe7c9320	-0.24665499
219	0x3e2d13fd	0.16902156
220	0x3c06edcb	0.008235405
221	0xbcbd0f7a	-0.023078669
222	0xbda3570f	-0.079755895
223	0x3da1e58a	0.07905109
224	0x3bfab5cf	0.007651068
225	0xbb451bfb	-0.0030076492
226	0x3c835632	0.016032312
227	0xbdf2d4c8	-0.11856991
228	0x3d80b6b6	0.06284849
229	0xbe0c3675	-0.13692649
230	0x3e169df4	0.14708692
231	0x3d3cfdc1	0.046140436
232	0xbe544811	-0.20730616
233	0xbd329ce1	-0.043606643
234	0x3d87ec78	0.066369
235	0xbdc982f7	-0.09839433
236	0x3de2c499	0.11072654
237	0xbe90a51d	-0.2825097
238	0x3dd8e2ad	0.1059011
239	0x3ba343cb	0.004982447
240	0xbd7a9736	-0.061179362
241	0xbcf6620d	-0.030076051
242	0xbde2b0a6	-0.11068849
243	0x3dc563d5	0.09638182
244	0x3db7e21a	0.08978672
245	0xbbd04423	-0.006355779
246	0xbdd3c2c3	-0.10339882
247	0x3d2f3004	0.0427704
248	0x3ca394b5	0.01996837
249	0xbd9c274f	-0.07624685
250	0x3e5481ff	0.20752715
251	0xbe50339c	-0.20332187
252	0x3e8b9077	0.27258655
253	0x3d8e938c	0.06961736
254	0xbd6da00f	-0.058013972
255	0x3d0946e8	0.033514887

bias f4 [200]
0	0xbe00cbfa	-0.12577811
1	0xbdce1fcb	-0.10064658
2	0xbd8887ac	-0.06666502
3	0xbd8144d4	-0.06311956
4	0xbd00f6b5	-0.03148528
5	0x3ca883fa	0.020570744
6	0xbd9a1a51	-0.07524551
7	0xbd688e24	-0.05677618
8	0xbdb78b4a	-0.08962114
9	0xbe11a2e9	-0.14222302
10	0xbdc094f8	-0.094034135
11	0x3c0a6fdd	0.008449522
12	0xbd9fe4f8	-0.07807344
13	0xbdb37d13	-0.087640904
14	0xbcc46027	-0.02397163
15	0x3dcf0c35	0.1010975
16	0xbd5d9695	-0.054098684
17	0x3d2a6581	0.041600708
18	0xbc7619b8	-0.01502078
19	0xbe0a28b8	-0.13492095
20	0x3d420596	0.04736861
21	0xbd95c36e	-0.07312666
22	0x3d0e279d	0.034705747
23	0xbdc83e27	-0.097774796
24	0xbd62f97d	-0.05541371
25	0xbc9b609b	-0.018966964
26	0x3dbb7bbd	0.091544606
27	0xbd048e33	-0.032362174
28	0x3dc6bb81	0.09703732
29	0x3c0b0226	0.008484399
30	0xbda43414	-0.080177456
31	0xbd79acc2	-0.06095577
32	0xbc8f1a7e	-0.017468687
33	0xbdc36340	-0.09540415
34	0xbd724593	-0.059148382
35	0x3e49815d	0.19678254
36	0x3c911d1a	0.017714072
37	0x3d0ca168	0.034333616
38	0xbd7cbd38	-0.06170389
39	0x3c6a1bcb	0.014288853
40	0x3ddf41d4	0.109012276
41	0xbd845fd4	-0.0646359
42	0xbdac1bfd	-0.08403776
43	0x3c3a2794	0.011361975
44	0xbdb851fe	-0.09000014
45	0xbd905c4f	-0.070488565
46	0xbdd62e2d	-0.10458026
47	0x3dceda43	0.10100224
48	0xbd1ab339	-0.037768576
49	0xbd07a993	-0.033120703
50	0xbc92b8c6	-0.017910372
51	0xbe162a9e	-0.14664695
52	0x3dd93359	0.10605497
53	0xbd311d73	-0.043240976
54	0xbcfce687	-0.030871643
55	0xbdd9969c	-0.106244296
56	0xbc7b7a92	-0.015349047
57	0xbd547696	-0.051870905
58	0xbd81ae01	-0.06332017
59	0xbb4a2a76	-0.0030848063
60	0x3ded8822	0.11598231
61	0x3c5384eb	0.012910108
62	0xbdb3f525	-0.08786992
63	0x3cb6b4f8	0.02230309
64	0xbd4527ed	-0.04813378
65	0xb99c5644	-0.00029818912
66	0xbcc03b24	-0.0234657
67	0x3d5d74b3	0.05406637
68	0xbd723f04	-0.059142128
69	0x3e07acac	0.13249463
70	0x3b553817	0.0032534653
71	0x3c98267b	0.018573036
72	0xbd962b65	-0.073324956
73	0xbde69b30	-0.112600684
74	0x3da6ed53	0.08150735
75	0x3c9441fe	0.018097874
76	0xbdb75250	-0.08951247
77	0xbd0d4d09	-0.034497295
78	0x3bfad74c	0.00765506
79	0x3c01b5ca	0.007916877
80	0xbc8c2b44	-0.017110474
81	0x3da188a3	0.078873895
82	0x3c396cf8	0.011317484
83	0xbc2891b4	-0.010288645
84	0xbcacef85	-0.021110306
85	0xbdc7f9d0	-0.09764445
86	0xbd5de25c	-0.05417095
87	0xbcc366bd	-0.0238527
88	0xbc2cb7f5	-0.010541906
89	0x3a44852b	0.000749665
90	0xbdd022d6	-0.101628944
91	0xbe122e2d	-0.14275427
92	0xbd4e914d	-0.05043154
93	0xbc5ec133	-0.013595867
94	0x3d37297b	0.044717293
95	0x3d80b823	0.06285121
96	0x3e048e0c	0.12944812
97	0xbd869d05	-0.06572918
98	0xbe073b69	-0.13206257
99	0x3dcf6bc7	0.10127979
100	0xbc28918a	-0.0102886055
101	0xbdb7eeba	-0.0898108
102	0xbd5aa101	-0.0533762
103	0xbd911a99	-0.07085151
104	0xbd930054	-0.07177797
105	0xbe009d3c	-0.1255998
106	0xbc955154	-0.018227257
107	0xbe44a88c	-0.1920492
108	0xbc1e05ae	-0.009644909
109	0xbde8c3ad	-0.11365447
110	0xbd275125	-0.04084887
111	0xbd0ccaa9	-0.03437296
112	0xbb5f8ba4	-0.0034110332
113	0xbe0853f7	-0.1331328
114	0x3c306e7a	0.010768527
115	0xbc38be03	-0.011275771
116	0xbda12feb	-0.07870468
117	0xbd4dd49f	-0.0502516
118	0xbd1631e3	-0.03666867
119	0xbd144383	-0.036197197
120	0xbcc5bb0c	-0.024137042
121	0xbb92e65c	-0.0044830274
122	0x3b1b6bd2	0.002371539
123	0xbdbc6150	-0.091982484
124	0xbd8a46d3	-0.0675179
125	0xbd547d29	-0.051877175
126	0xbdc73d8f	-0.09728538
127	0xba0cb7bd	-0.00053679553
128	0xbd33da10	-0.043909132
129	0x3d84c4b3	0.0648283
130	0xbce885a8	-0.028384045
131	0xbd8c4df4	-0.06850806
132	0x3d78d535	0.060750205
133	0x3cdb065e	0.026736435
134	0xbd9d81e6	-0.07690792
135	0xbcc48067	-0.023987008
136	0xbd30ec4b	-0.043194097
137	0xbe0478a2	-0.12936643
138	0xbd383a11	-0.04497725
139	0x3c35f8bb	0.011106665
140	0x3d6c96b0	0.057760894
141	0x3c83cd6e	0.016089167
142	0xbbc8aaba	-0.006123868
143	0xbe3a7659	-0.18209209
144	0xbd14f655	-0.036367733
145	0x3e1e5ef1	0.15465905
146	0xbd424acc	-0.047434613
147	0x3d6e2432	0.058139987
148	0x3d6cae99	0.057783697
149	0xbddcfe2f	-0.10790669
150	0xbd5e9299	-0.054339025
151	0x3dac5d86	0.08416276
152	0xbdb90459	-0.090340324
153	0xbdab2942	-0.08357479
154	0xbdb0344d	-0.086037256
155	0x3d404d51	0.046948735
156	0x3c76bdd3	0.015059906
157	0x3db7ab66	0.089682385
158	0xbdb4cdf6	-0.088283464
159	0x3de87004	0.1134949
160	0xbc852f44	-0.01625789
161	0xbda1bd66	-0.07897453
162	0xbc2554b3	-0.010090995
163	0x3cbbbbba	0.022916663
164	0x3d9f9dd0	0.07793772
165	0xbb563340	-0.0032684356
166	0xbd93a021	-0.072082765
167	0xbe24223c	-0.16028684
168	0x3d8ebbb5	0.06969396
169	0x3dbe3ceb	0.09288963
170	0xbcbce441	-0.023058059
171	0xbd0afcdb	-0.033932548
172	0x3d581124	0.05275072
173	0xbdc5a6d5	-0.09650961
174	0xbd731ed6	-0.05935558
175	0xbca2343e	-0.019800302
176	0x3e07571d	0.13216825
177	0xbcef6c8f	-0.02922657
178	0xbd84336c	-0.064551204
179	0xbc8efa57	-0.017453356
180	0x3b6ac9f6	0.0035825945
181	0x3c4cdc91	0.012503759
182	0x3c90091c	0.017582469
183	0xbcdd936e	-0.027047839
184	0xbd4bdf8e	-0.049773745
185	0xbdd3a84b	-0.10334834
186	0xbdf2e94a	-0.118609026
187	0xbd53241e	-0.051548116
188	0xbd99dc53	-0.07512727
189	0xbd2fe22f	-0.042940315
190	0xbd83edb5	-0.064418234
191	0xbd8eca62	-0.06972195
192	0xbd30e381	-0.043185715
193	0xbd24d3bf	-0.040241
194	0xbd0a51b7	-0.033769336
195	0xbca0d330	-0.019631952
196	0xbb8b325f	-0.004247948
197	0xbde29f71	-0.11065567
198	0xbdb9e815	-0.09077469
199	0x3deb952a	0.1150306

weight f4 [10, 200]
0	0xbd3a9b5d	-0.045558322
1	0xbe315834	-0.17318803
2	0xbe11da3d	-0.14243408
3	0x3cbf02c9	0.023316758
4	0x3c123de7	0.0089258915
5	0x3d8bc109	0.06823928
6	0x3d41594e	0.04720431
7	0xbde46e12	-0.11153807
8	0xbea4ba02	-0.32173163
9	0xbd4c1658	-0.049825996
10	0xbde23fe8	-0.110473454
11	0xbe82829c	-0.25490272
12	0xbe36d8e7	-0.17856179
13	0xbd9a96f8	-0.07548326
14	0x3d8038a3	0.062608026
15	0x3e3374d2	0.17525032
16	0x3da8139b	0.082068644
17	0x3e245ecb	0.16051786
18	0x3e0a64f7	0.13515078
19	0xbda5e44e	-0.08100186
20	0x3daa92eb	0.08328804
21	0x3d764bc5	0.060130853
22	0xbe88bd67	-0.26707003
23	0x3df16a22	0.11787821
24	0x3d962fbd	0.07333324
25	0x3e136119	0.14392509
26	0xbe83ebed	-0.25765935
27	0x3c194439	0.009354644
28	0xbe93b42e	-0.28848404
29	0xbe20d423	-0.15705924
30	0x3d67478f	0.056464728
31	0xbd52b8a0	-0.051445603
32	0xbe00a774	-0.12563878
33	0xbe280e1b	-0.16411631
34	0x3dd1bee2	0.10241486
35	0x3dbaa1c6	0.09112887
36	0xbe9080f9	-0.28223398
37	0x3e01d40e	0.12678549
38	0xbe641fdc	-0.22277778
39	0x3e507c7b	0.20359986
40	0x3d842e16	0.06454103
41	0xbcbcccf5	-0.02304695
42	0x3d2af14c	0.041734025
43	0x3d8c1595	0.06840054
44	0x3dd031bf	0.10165738
45	0xbda75940	-0.0817132
46	0x3d70c54a	0.0587819
47	0xbc81b9b5	-0.015835622
48	0xbd09f2c2	-0.033678778
49	0x3ca60662	0.020266715
50	0xbc3ba9a9	-0.011454024
51	0xbdf33696	-0.11875646
52	0x3e691efc	0.22765726
53	0xbe5b3352	-0.21406296
54	0x3db036e1	0.08604217
55	0x3d8b9258	0.06815022
56	0x3e4d3400	0.20039368
57	0x3d8a2f61	0.06747318
58	0x3d834f24	0.06411579
59	0xbe1f2e13	-0.1554492
60	0x3d9e5173	0.07730379
61	0xbd4a11ca	-0.04933337
62	0x3ccb6cf7	0.024832232
63	0xbda0fdf9	-0.078609414
64	0x3df083a6	0.1174386
65	0x3dc1b523	0.09458377
66	0xbc214f40	-0.009845555
67	0xbc8a488d	-0.016880298
68	0xbd4de5fa	-0.05026815
69	0xbd1f8713	-0.038947176
70	0xbdbada78	-0.09123701
71	0xbe5128b7	-0.20425688
72	0x3cbfc635	0.023409942
73	0xbe74c154	-0.23901874
74	0xbe54302f	-0.20721506
75	0xbde7e770	-0.1132344
76	0xbe8ea1a9	-0.27857712
77	0x3e19cf87	0.15020572
78	0xbe282dee	-0.16423771
79	0xbd13ff1a	-0.036131956
80	0x3e05e368	0.1307503
81	0xbdb3ee01	-0.0878563
82	0x3d06a1a1	0.032868985
83	0x3dcdcccb	0.10048827
84	0x3e0eae16	0.13933596
85	0x3dec310c	0.115327924
86	0xbe8db0fd	-0.27674094
87	0x3da63d7f	0.08117198
88	0x3d0c92fc	0.034319863
89	0x3e10b476	0.1413134
90	0x3dcbfea5	0.09960679
91	0xbe1fb257	-0.15595375
92	0xbcd25a83	-0.025677925
93	0x3ca02e76	0.019553404
94	0x3c2c4451	0.010514335
95	0xbbae2e9d	-0.0053156153
96	0xbd51d17d	-0.051225174
97	0x3cbe8c1f	0.023260174
98	0x3bd06532	0.0063597197
99	0xbd4903f5	-0.04907604
100	0xbd8a5028	-0.0675357
101	0x3d51a1a8	0.051179558
102	0x3d8485a8	0.064708054
103	0x3d3ba243	0.04580904
104	0xbe23b6c5	-0.1598769
105	0xbe123e34	-0.14281541
106	0x3d3a23e8	0.0454444
107	0xbb8baf22	-0.004262821
108	0xbe88d104	-0.26721966
109	0x3cf07191	0.029351028
110	0x3df3ebe9	0.11910231
111	0xbd09b938	-0.033623904
112	0x3c147849	0.009061881
113	0x3e1bb00b	0.15203874
114	0xbeb3ceb6	-0.35118645
115	0x3e15fdc9	0.14647593
116	0xbe5a4f0c	-0.21319216
117	0xbdcc203e	-0.09967087
118	0xbe48bdce	-0.19603655
119	0x3b3277ac	0.0027231975
120	0xbd63134a	-0.055438317
121	0x3d07f473	0.03319211
122	0x3d9e58a5	0.07731751
123	0x3dd7199c	0.105029315
124	0xbe169439	-0.1470498
125	0xbe456979	-0.19278516
126	0x3d601200	0.054704666
127	0xbe1348b9	-0.1438321
128	0x3db3a193	0.08771052
129	0xbe26c51e	-0.16286132
130	0xbdf04e8a	-0.1173373
131	0x3d41892f	0.04724997
132	0xbe0de124	-0.13855416
133	0xbdb74a61	-0.089497335
134	0x3d5159c3	0.051110994
135	0xbdc8c3bb	-0.098029576
136	0xbcb9b783	-0.022670513
137	0x3dc9812b	0.0983909
138	0xbdabf8ef	-0.0839709
139	0x3db7bf20	0.08972001
140	0xbe07ddc6	-0.13268194
141	0xbccaa6a9	-0.024737673
142	0xbdbe8c95	-0.09304158
143	0xbe165a22	-0.1468282
144	0x3cdb1410	0.026742965
145	0xbe8353a6	-0.25649756
146	0x3dcef0f0	0.10104549
147	0x3df26a6a	0.11836703
148	0x3e307266	0.1723114
149	0x3d49bb1e	0.049250714
150	0xbe3c5243	-0.18390755
151	0x3e18c6c4	0.14919573
152	0x3e0704e6	0.13185462
153	0xbe1b249f	-0.15150689
154	0xbe0c26be	-0.13686654
155	0xbe70a11c	-0.23498958
156	0xbdda611d	-0.10663054
157	0x3de79253	0.11307206
158	0x3ba2078b	0.004944747
159	0x3cd2ce7b	0.025733223
160	0xbbc9e16b	-0.006160905
161	0xbe0ed5b7	-0.13948713
162	0xbd97e8a2	-0.07417418
163	0xbe18baaf	-0.14914964
164	0x3e3a02b7	0.18165098
165	0xbd3c58f2	-0.045983262
166	0x3e79cf2b	0.24395435
167	0x3c69c9c6	0.014269298
168	0x3c6c6521	0.014428408
169	0xbe74dff8	-0.23913562
170	0xbe2d6d05	-0.16936119
171	0xbc1d6a9d	-0.009607938
172	0xbe4902b2	-0.19629934
173	0x3d423c55	0.04742082
174	0xbeb4ef4c	-0.3533882
175	0xbc9c2050	-0.019058377
176	0x3c4a95fe	0.0123648625
177	0x3d87fa47	0.066395335
178	0x3d47ac4f	0.04874831
179	0xbe8312bc	-0.2560023
180	0xbe60a287	-0.21937
181	0xbe08f946	-0.1337634
182	0xbdf92dda	-0.121669486
183	0xbc7d940c	-0.015477192
184	0x3e0b180d	0.13583393
185	0xbdd9ada9	-0.10628826
186	0xbd941077	-0.07229703
187	0x3e122573	0.14272098
188	0xbda1b8bc	-0.078965634
189	0x3e267327	0.16254865
190	0x3e4915bd	0.19637199
191	0x3d0f6fba	0.03501866
192	0xbe62e2ec	-0.22156876
193	0xbe17830b	-0.14796083
194	0x3eadeae9	0.33968285
195	0xbcba4216	-0.02273659
196	0x3d113575	0.03545137
197	0xbe45f011	-0.1932986
198	0x3cf5cdcd	0.03000536
199	0x3da26531	0.07929457
200	0xbdf9884d	-0.121842004
201	0xbdf3b03c	-0.118988484
202	0xbe67072e	-0.22561333
203	0x3e2ec173	0.17065983
204	0xbe1a9c3a	-0.15098658
205	0xbe773c2b	-0.24144046
206	0x3dc23197	0.09482115
207	0xbe32f1f9	-0.17475118
208	0xbcbb3e85	-0.02285696
209	0x3d2b61d5	0.041841347
210	0x3d6ec866	0.058296584
211	0xbd8b3a6b	-0.06798252
212	0xbe81d2e5	-0.25356212
213	0x3e1a702e	0.15081856
214	0xbe1657f3	-0.14681987
215	0x3b6e7dca	0.0036390894
216	0xbdb4fb45	-0.08836988
217	0x3e4e3aed	0.20139666
218	0x3de7bfc9	0.11315877
219	0x3bfe6df5	0.0077645727
220	0xbe8f0926	-0.27936667
221	0x3db32c06	0.08748631
222	0x3dfd727f	0.12375354
223	0xbc528d45	-0.012851064
224	0xbdc4fa36	-0.096180364
225	0xbc7a9fc4	-0.01529688
226	0x3df8fb4d	0.12157307
227	0x3d1da665	0.038488764
228	0xbdcaef35	-0.09908906
229	0xbe323e87	-0.17406665
230	0xbd6c2a92	-0.057657786
231	0xbd84db72	-0.06487168
232	0x3e282e06	0.16423807
233	0x3b8aab93	0.004231879
234	0xbdbc250b	-0.09186753
235	0x3d52c8fa	0.051461197
236	0x3c88e1f6	0.01670931
237	0xbd66318a	-0.056199588
238	0xbe8275d4	-0.2548052
239	0xbd4cd55a	-0.050008155
240	0xbe4b86b1	-0.198756
241	0x3d54ba95	0.05193575
242	0xbdc4b57d	-0.09604929
243	0xbe98d820	-0.2985239
244	0x3ca993cf	0.020700363
245	0x3d4a699b	0.04941712
246	0xbcb72bff	-0.022359846
247	0xbe3d57d1	-0.1849053
248	0x3d07e996	0.03318175
249	0xbdacba7b	-0.08434006
250	0xbdf82020	-0.12115502
251	0xbe17010b	-0.14746492
252	0xbe0a6a9e	-0.13517234
253	0xbe2f06b0	-0.17092395
254	0x3e81d132	0.25354916
255	0x3cc30f3f	0.02381098

bias f4 [10]
0	0x3b8f7889	0.0043783826
1	0xbd9f645a	-0.077828124
2	0xbd7e8840	-0.062141657
3	0xbc420bbd	-0.011843619
4	0xbc3ac3af	-0.011399194
5	0xbd6361be	-0.055513136
6	0xbd7cadf8	-0.061689347
7	0xbda5522a	-0.08072312
8	0x3e72e1e9	0.2371899
9	0x3d05a880	0.032631397
